best_adversarial_pipeline_checkpoint.pth (torch, 207247 bytes, 44 tensors)

feature_extractor.net.0.weight f4 [64, 7]
00000000: fa0a 2e3e a096 b2be e6f1 513d 6659 4bbe
00000010: c95b 233e b7c7 1bbe f2fc 813e 2ee1 a13e
00000020: c59a 233e e93a 823d 73b2 8bbe fda9 d13e
00000030: 9634 bfbe 9319 06be a6c1 81bd b89f dabd
00000040: dc36 b7be 28e5 75be 723f 23be 6003 38be
00000050: 5fbd eb3e c850 c93e 45c3 44be 21ce 753e
00000060: 4271 a63e 4d2d 143e b575 9cbe 5cef 9fbd
00000070: 3279 25be 6882 76bd 9e4a 253d 23b1 ddbd
00000080: fc47 0d3f 687c 543e e9ba 56be a05d a83e
00000090: 4e11 4c3e 4019 eb3d 4e2a 7c3e 0143 63be
000000a0: 7492 67bd 8e4c 33be 7f60 083c 37d2 823e
000000b0: e0af 4dbe 61d9 a4bb da41 11be 9a6e e6be
000000c0: 8ca6 25be 2ec0 993e 972b 4c3e 5b53 e1be
000000d0: 4e37 12be 065c 73be 609f 34be 0df9 143e
000000e0: c79a c7be 193b 46be c3bb 963e 63f5 b6bb
000000f0: 3a2c e83d cb36 82bc 2c19 dcbe 6630 83bd
00000100: 9397 aebc e429 743e 0367 1c3c b2a0 b2be
00000110: 2193 f6be 2294 debb 375b 443e 5d56 4cbe
00000120: 59b6 37be faf2 5bbe 9f5f a73e 73e2 04be
00000130: 2401 d5be 99ee e03d 2517 b63e 020f 44be
00000140: 97b7 893e 978e cbbe f3bf a8be 469e 0fbe
00000150: 42c5 5c3e 85d0 803e faba 56be d6ac 46be
00000160: adcd a63e 0b7b e3bd b3ef 93be 6ec5 5c3d
00000170: dc32 3fbe 9032 30bd 106d 61be b083 b2bd
00000180: 36b5 54be 6844 8cbe a712 80be 02e1 89bc
00000190: 1777 6f3e 1365 9f3e 7cab 84be b035 48be
000001a0: 0b97 973e eadf c1bc dd2c 6e3e fcb7 563e
000001b0: e849 43bd eb57 e9be 7a84 afbe 190b d6bb
000001c0: 9bd3 883d bfc6 6d3e 80d6 033e b444 26be
000001d0: 98de 59be e767 c03e 4116 6c3e 94a1 7dbd
000001e0: 61d5 8abe eca8 3e3e 43bf bc3d 11be 7dbe
000001f0: 52ae c6bd feb9 84be 13ac 36be 6aa2 2b3c
00000200: e409 03bf c84a cdbe b79e 11be cbfb b03e
00000210: a7d1 9d3e cad1 543e 1983 133e 9b7d 93be
00000220: a2cf 8ebe 04f3 2d3e 4964 06be 85cc 713e
00000230: a723 33be 9569 97be 1a31 763e 8e3d a8be
00000240: 16b0 11be 5cd8 33be b73b 9a3e 9a07 78bc
00000250: 0186 8abd 7bb4 f0bc 842d 623e dc56 7ebe
00000260: c097 013f 70a9 9b38 81e1 d73d 3471 05be
00000270: fe04 403e 41e1 d83c 085d a0be d282 723e
00000280: 1d53 b03e 5a02 3abe 638b b0be d646 caba
00000290: 48d1 9fbc f661 03be cb3e 59be c369 93be
000002a0: 1b40 82be 9391 953e 70af 6e3e ccdb 1dbe
000002b0: 7651 fa3d 9fcb 97bd b9a3 1fbe 0af3 ee3d
000002c0: 7c7b b33d f678 6b3e 02cc c73e f79a 113f
000002d0: 9ea4 9f3e ef1c 8fbe ee53 603e cca8 80be
000002e0: efe2 843e 30bb 87be d365 3fbc 22a8 2b3c
000002f0: 712b 1d3e 0d76 923e f906 47be 12cc 8fbe
00000300: 01bb ae3e ea84 3bbe 5444 273e 20c8 fd3d
00000310: 992f ac3e 76a4 8dbe e99b c83e 829a 953e
00000320: 34d2 83be 9478 793e 895f 06be b27b 87be
00000330: 4d59 e7be 59bd d8be 3282 243d 3fbd c2bd
00000340: 07c2 82bd 0ccb bbbd 26c9 f83d 2ae5 7bbb
00000350: ce48 ae3e 3e36 c33d f6bf 22be 2fdf e03d
00000360: bb9e 81be 831c 8fbe f6da a63e 4328 7c3e
00000370: 8fff 49bd 0167 adbd c712 85bd 0c8f febd
00000380: 24ea 533e 1c35 843e 48c3 483e ebcf a03e
00000390: a375 163e e7a7 a3be 38b9 cd3d 49f1 2ebd
000003a0: 8fa5 3dbd a8ec 8abe fc84 cc3d 10e9 5ebe
000003b0: 1117 013f 417d 1bbe 603c 7e3e 73f2 033e
000003c0: eb32 aabc 6287 89be 6bd9 683d beed 20bd
000003d0: d582 8dbe 36d5 803d d2d1 b0be 2ed8 983e
000003e0: 62e4 60be 9677 a43e 37e4 093e 55bb 543e
000003f0: b5a0 363e 28b6 663e 6dfb dcbd 8c01 cb3d
0.16996375 -0.34880543 0.051256083 -0.19858322 0.15952982 -0.15212904 0.25388294 0.3161711
0.15977009 0.063588925 -0.27284583 0.40950003 -0.37344807 -0.13095693 -0.06335764 -0.10674995
-0.35784042 -0.24013197 -0.15942171 -0.17970037 0.46042916 0.39319444 -0.19215114 0.24004413
0.32508284 0.14470406 -0.30558553 -0.07809326 -0.16159514 -0.06018296 0.040354364 -0.10824802
0.55187964 0.20750582 -0.20969738 0.3288393 0.19928476 0.114794254 0.24625513 -0.22193529
-0.056536153 -0.17509672 0.008323788 0.25551006 -0.20086622 -0.0050307964 -0.14185277 -0.45006257
-0.16176814 0.30029434 0.19938503 -0.44008908 -0.1427891 -0.23765573 -0.17638922 0.1454813
-0.38985273 -0.19358481 0.29440126 -0.0055834516 0.113365605 -0.015895268 -0.42987955 -0.06405716
-0.02131251 0.23844105 0.009546044 -0.34888226 -0.48159125 -0.006792561 0.1917542 -0.1995482
-0.17940654 -0.21479407 0.3269014 -0.12977009 -0.41602433 0.10983009 0.35564533 -0.1914635
0.2689788 -0.39757225 -0.32958946 -0.1402522 0.21559623 0.25159088 -0.20969763 -0.19401869
0.32578793 -0.11107453 -0.28893813 0.05389922 -0.18671745 -0.04301697 -0.2201426 -0.08716524
-0.20772251 -0.2739594 -0.2501423 -0.016830925 0.23385273 0.311318 -0.25912082 -0.1955173
0.29607424 -0.02366634 0.23259301 0.20968622 -0.047677904 -0.4557489 -0.3428076 -0.0065320847
0.066809855 0.23220347 0.12874794 -0.16237146 -0.21276319 0.3757927 0.23055364 -0.06192167
-0.2711592 0.18619126 0.09216168 -0.24779536 -0.09701218 -0.2592315 -0.17839079 0.010475734
-0.51186967 -0.40096116 -0.14220701 0.34567103 0.30824015 0.20783153 0.14405479 -0.28806767
-0.27892786 0.16987234 -0.13124193 0.23613174 -0.17494069 -0.2957274 0.24042168 -0.32859462
-0.14227328 -0.17563003 0.30123684 -0.015138531 -0.067638405 -0.029382935 0.22087675 -0.24837822
0.5062218 7.422536e-05 0.10541058 -0.13031465 0.18751904 0.026474597 -0.31320977 0.23682716
0.3443841 -0.1816496 -0.34481344 -0.0015432488 -0.019508973 -0.12830338 -0.2121536 -0.28791627
-0.25439534 0.29212627 0.23309112 -0.15415877 0.12222569 -0.074118845 -0.15589799 0.1166745
0.08763787 0.22995362 0.39022833 0.5687708 0.3118028 -0.27951762 0.21907017 -0.25128782
0.25954387 -0.2651 -0.011681992 0.010477098 0.15348603 0.2860569 -0.19436254 -0.2808538
0.34127048 -0.18312421 0.16334659 0.123916864 0.33630064 -0.27664536 0.3918145 0.29219443
-0.2574631 0.24362403 -0.13122381 -0.2646156 -0.4518532 -0.4233196 0.040163226 -0.09508752
-0.06384664 -0.091695875 0.12147741 -0.0038436153 0.3403992 0.0953183 -0.1589354 0.10980069
-0.25316414 -0.2795144 0.3258893 0.24624734 -0.049315985 -0.08466912 -0.06497722 -0.12429628
0.20694786 0.2582177 0.19605744 0.3140863 0.14693312 -0.31964037 0.10045093 -0.042710576
-0.046300467 -0.2713368 0.09986302 -0.21768594 0.5042582 -0.151845 0.24827719 0.12885456
-0.020776233 -0.268611 0.05684797 -0.03928923 -0.2763888 0.06290667 -0.3453508 0.29852432
-0.21962121 0.32122487 0.13465963 0.20774586 0.17834742 0.22530425 -0.10790143 0.099124044

feature_extractor.net.0.bias f4 [64]
00000000: 93b4 c63d 13b7 d93d b3c5 243e 1629 d73c
00000010: 3bab 65be a0d9 40be f82b 893e 32da 9e3e
00000020: 778e 0d3e 271a 703e ef88 92bd b44f 50be
00000030: 76a0 c8bd f3d5 e73e 4a00 913e a006 a83e
00000040: 9267 5fbd f4ca db3e f2eb 57be 394a c93d
00000050: 7fb4 cabd 64e3 ffbe a62f 4dbd 2777 183f
00000060: 68f5 c63e 7121 49be b4a5 85bc 2be0 b5be
00000070: 45bc f6bb c875 cf3e 8f84 58be a383 a4be
00000080: 8a1a b43e c628 983e 2522 023f cdcd d03e
00000090: 83a2 90be 5f4b cf3e 091c b43e 06b4 6e3d
000000a0: 8696 ebbd ff08 ddbe d411 1fbe f9ca 763b
000000b0: 9566 543e 15e8 8abe ddf4 073e d1ff 393e
000000c0: 6be1 7f3e 845c 9fbd c4f1 6d3e 680f c73e
000000d0: f53c 713e 757e 80be 4d70 e03e 4634 a03e
000000e0: b6ff 9a3d 4897 a8be 4594 ce3d 0ad6 e73c
000000f0: ab18 57be cbdc 77be 59ea cdbd fd7b 773e
0.097024105 0.10630622 0.16091041 0.026264708 -0.224286 -0.18833017 0.26791358 0.31025845
0.13823877 0.23447476 -0.07155024 -0.20342904 -0.097962305 0.45280418 0.28320533 0.32817554
-0.05454213 0.42928278 -0.210861 0.0982861 -0.09897708 -0.49978173 -0.05009427 0.5955681
0.38859105 -0.19641663 -0.016314365 -0.3552259 -0.0075297677 0.40519547 -0.21144317 -0.3213168
0.35176498 0.29718608 0.5083335 0.40782014 -0.28248987 0.4048719 0.3517764 0.058277152
-0.115033194 -0.43170926 -0.15534145 0.0037657602 0.20742257 -0.2713019 0.13277002 0.18163992
0.24988334 -0.07781318 0.23236758 0.38878942 0.2355841 -0.2509648 0.4383568 0.3128988
0.07568304 -0.32927918 0.10086874 0.028300304 -0.21005504 -0.2420532 -0.10054464 0.24168392

feature_extractor.net.2.weight f4 [32, 64]
00000000: 43e4 b3bc 4418 d13d 9e53 9d3d c3d5 a73d
00000010: 58c6 cfbd 335f a23a 0a1e 273e 489d 8b3d
00000020: a45e 75bd edec 9c3d 3081 34bd f5e3 173e
00000030: 10d5 a53c e8a9 ed3d 2c22 1b3e 4506 6d3e
00000040: ed25 353d 5d6a 8b3c c739 febc f3c1 ac3d
00000050: 3878 273d d950 e2bd c2ef 2a3d 56c8 673e
00000060: 23b1 293e 1c11 00bd 9618 55bd 30a4 20be
00000070: eada 133d 18d4 8e3d a012 0e3d 2211 a23c
00000080: ae53 abbd 3f69 b9bc fc40 073e 86f9 56bd
00000090: d81f 563d ac70 873c 0be9 7f3d cb0a 8e3d
000000a0: 36e0 3f3d 47ed a3bd 3bb8 223c 2cbb 8d39
000000b0: 7dbf 38bd 31ed 933c 6f0f e23c 6ff9 fdbd
000000c0: aa69 c43c 4cf2 313c 02bd 8b3d 59ca 973b
000000d0: 28a0 1c3e e71f 3b3d 5fdd 823d 81fa 0f3e
000000e0: 5c96 1cbc fd95 5bbd 1f07 96bd 65a4 c33c
000000f0: a9d5 113e 1333 35be d950 d03d eca3 13bc
00000100: 5cb0 85bd eb09 03bd 4d1f 313e 196b 2bbd
00000110: 3651 ec3c 4c90 2a3d 0252 1fbd 75b9 d23b
00000120: f04c aabd 6aad 85bd 6fd1 d7bd e723 033e
00000130: 265c 0fbd b1db 00bd e3c9 67bd 8c4b f63d
00000140: e7ab 2dbd eb2c 043c 70c6 ea3d 3ea3 293c
00000150: ffe3 32bd d445 5ebd 32b1 9c3c 2a70 cc3d
00000160: c8e2 8d3d 1333 3bbc 1114 28be 0d4d 06be
00000170: 9297 32bd 8e03 80bd 40a1 ab3d 1132 033c
00000180: 1281 27bd a93e e83c 1a42 1e3e 5ddf 61bd
00000190: c56a 9cbc d1bc 99bd 4c09 be3c 9f88 15bb
000001a0: f2e3 02be 34ff 333d b00d c8bc 20b1 e5bc
000001b0: 4c79 ce3d 1f66 fdbc 39b9 03be d5ea edbd
000001c0: bbc2 3d3d bf0f 113e f973 62bb 4ea9 e83d
000001d0: 643d db3d 7c4b c2bc 3c07 e73d 8787 ddbd
000001e0: b201 763d 05a8 28be d57b 1d3c eb15 b73d
000001f0: 768c bc3d 94fa 08bd 7b13 823d 6421 c4bd
00000200: 3c45 8cbd 5c70 debd 498b 463e b6d0 c93c
00000210: 7e48 a8bc 333b c9bd 0809 2e3e 1746 e73d
00000220: d740 053e 66d2 123e 9b32 3b3d a842 88bd
00000230: fa4e 493c 8c45 f13d 62b4 353d ec0f 513e
00000240: d7d5 9abd 556e 793d eb21 143e 1262 983d
00000250: 9069 6c3d b700 edbc b25c 203e 4645 d83d
00000260: 5289 d63d 067a 89bc 9043 e53d 9693 ea3c
00000270: f6b0 d2bd 166e 2c3e 3f47 483d 3902 a93d
00000280: 3c79 00be d3bc 7b3e ce8f c73c f1bd dc3d
00000290: afbe 33bc a6ad 623d 5ddc ce3d e29f 563e
000002a0: 814b 983c 8fd6 3fbe c574 003e c580 ff3d
000002b0: 2533 693d 20d9 d1bd 4632 d8bc 56ca 23be
000002c0: 3ff3 163e 1cd0 503d e597 b6bd dbe0 edbd
000002d0: 6a78 76bc 52a7 9b3d 1739 143e 48ae 093e
000002e0: a8e0 f63c bc7b 10bd 84f5 1cbe 1f8e b8bb
000002f0: 2279 ca3d cadb efbd 9846 533e 8e61 023d
00000300: 1847 3ebd 0421 593d 3fc6 8e3d e2d7 273d
00000310: 20f4 e3bd dd4f 86bd dd1b 23bd a175 6f3c
00000320: 8412 ccbd bc87 9abd 1ca6 d0bd 3f51 723d
00000330: 897f 633d b74b d3bd 4018 693d a118 6ebd
00000340: b333 0cbe 670d a23d 0d13 043d fd03 643d
00000350: 905e 373d 1142 8a3d d466 07bb 6d71 ddbd
00000360: 2688 ddbd 6810 2fbd 52c8 33bd f10c c2bd
00000370: 8311 f93c 27d7 38bd d868 cf3d 91ea b9bd
00000380: 1d9a ac3b f880 7dbd 3073 17bb 2a36 c73d
00000390: 9bec 1f3c af1d 6bbd ed35 6cbd ed1b 94bc
000003a0: 0848 c7bb ce59 2d3c 4a92 813d 9000 7d3d
000003b0: 21d7 143d cab6 04bd efcd df3d cb28 7e3d
000003c0: 82d4 ab3d ab56 553d 4cc1 babd 0268 ffbd
000003d0: 769c 6a3d d0e7 05be 3d43 183d a67f 80bd
000003e0: 1ccc 19be ea74 57bd 18cc b8bc a98e af3d
000003f0: 5e65 a43d 0fe9 b6bd 6e9f 0bbe e7ba d7bc
-0.02195943 0.102097064 0.07681964 0.08195069 -0.10145253 0.0012387991 0.16320053 0.068171084
-0.05990471 0.076623775 -0.044068515 0.14833052 0.020243198 0.11604673 0.15149754 0.23146923
0.044225622 0.017018491 -0.03103341 0.084354304 0.040886134 -0.11050577 0.041732557 0.22635016
0.16571479 -0.031266317 -0.0520254 -0.15687633 0.036097445 0.069740474 0.03468573 0.01978356
-0.0836557 -0.022633193 0.13208383 -0.052484058 0.052276462 0.016533218 0.062478106 0.06935652
0.046844684 -0.080042414 0.009931619 0.0002703307 -0.045104492 0.018057438 0.02759525 -0.12401091
0.023976166 0.010860991 0.0682316 0.004632276 0.1529547 0.04568472 0.063898794 0.14060403
-0.009557333 -0.053609837 -0.07325577 0.0238821 0.14241661 -0.17695265 0.101716705 -0.00901125
-0.065277785 -0.03199188 0.17297097 -0.041850183 0.028847318 0.04164152 -0.038896568 0.0064307996
-0.08315456 -0.06527217 -0.10537993 0.12806664 -0.03499999 -0.031459514 -0.05658902 0.12026128
-0.042400267 0.00806735 0.1146363 0.010353861 -0.043674465 -0.054265812 0.019127462 0.09982331
0.06928021 -0.011425751 -0.16413905 -0.1311533 -0.04360158 -0.06250678 0.08380365 0.008007542
-0.040894575 0.028350191 0.15454903 -0.055144656 -0.01909388 -0.07506717 0.023197792 -0.0022817028
-0.12782267 0.043944553 -0.02442059 -0.028038561 0.10081729 -0.030932484 -0.12863626 -0.11617056
0.046328288 0.14166163 -0.0034553988 0.11360417 0.10705069 -0.023717634 0.11280677 -0.108168654
0.06006021 -0.16470344 0.009612043 0.089397274 0.09206478 -0.033442095 0.06351372 -0.09576681
-0.06849143 -0.108612746 0.1938907 0.024635654 -0.02054238 -0.098257445 0.16995633 0.112926655
0.13013016 0.14338073 0.045702558 -0.06653339 0.012286896 0.11780843 0.04436148 0.2041623
-0.07560318 0.060896236 0.14466064 0.074405804 0.05771786 -0.028931005 0.1566036 0.10560088
0.104754105 -0.016781818 0.11194527 0.028634828 -0.10287659 0.1683887 0.04889607 0.08252377
-0.12546247 0.2458375 0.024360564 0.10778416 -0.0109707555 0.055341385 0.10100625 0.20959428
0.01859069 -0.18734191 0.12544544 0.12475733 0.05693354 -0.102464914 -0.02639116 -0.15995154
0.14741229 0.05097972 -0.0891569 -0.116151534 -0.015043357 0.07600273 0.14474903 0.1344539
0.030136421 -0.035274252 -0.15328032 -0.0056321765 0.098863855 -0.11711843 0.20632398 0.031831317
-0.04645452 0.05301 0.06971406 0.040977366 -0.111305475 -0.065582015 -0.039821494 0.014615447
-0.09964469 -0.075454205 -0.10187933 0.059159514 0.05554155 -0.10317176 0.056907892 -0.058128957
-0.13691597 0.079127125 0.03224473 0.055667866 0.044767916 0.067508824 -0.0020660656 -0.1081265
-0.10816984 -0.042740256 -0.043892212 -0.094751246 0.030403858 -0.04512706 0.10127419 -0.09077943
0.005267395 -0.061890572 -0.0023109429 0.09727128 0.009761001 -0.057401355 -0.057668615 -0.018079722
-0.006081585 0.010580493 0.063267305 0.061768115 0.036337975 -0.032400884 0.109279506 0.062050622
0.08390142 0.052084606 -0.091189 -0.1247101 0.05727812 -0.1307671 0.0371735 -0.06274347
-0.15019268 -0.052601732 -0.022558257 0.08572132 0.08027147 -0.08931171 -0.13635036 -0.02633424

feature_extractor.net.2.bias f4 [32]
00000000: b0ab 3f3e 8cb8 db3d 8a2f 693d e3a2 69bd
00000010: b2d6 053e 28cc f6bd f9ff a53d 7f5e 163d
00000020: 04f6 a2bc cac9 073d 7921 03bd e4ee dbbd
00000030: a4be b13d f42f 32bd 1bfb 503e 8a0b 3d3e
00000040: 8598 77bc dd91 c53d 7c9e 173e 92bc 08be
00000050: 5e95 ffbd 7d6e 8c3e d802 5abe 66c7 60bd
00000060: f6c1 c03d e4ca 8a3d ab8e 3fbb 2447 783d
00000070: 6816 96bd 59aa 96bb 788e 6f3d 4234 e3bd
0.18717837 0.10728559 0.056930102 -0.057040107 0.13070181 -0.120506585 0.081054635 0.036711212
-0.0198927 0.033151425 -0.032014344 -0.10738924 0.0867894 -0.043502763 0.20408289 0.18461433
-0.015112047 0.09646962 0.1480655 -0.13353184 -0.124796614 0.27428046 -0.21290147 -0.05487766
0.09411995 0.067769796 -0.0029229324 0.06061472 -0.073284924 -0.0045979437 0.05848548 -0.11093952

classifier.fc.weight f4 [2, 32]
00000000: 0aa8 ab3e 4fb5 a43d cf9d bd3e b5bc c4bd
00000010: 6b85 a43e 43b3 c83d a184 383e c35f 933e
00000020: a54f 603e ae12 a5bd 8092 cd3e 8aa5 583e
00000030: 07bc da3d 9ce5 233e a7da b33d 1d7d 993e
00000040: 0871 0fbf fe89 8c3c 565e 913e 40c4 0f3b
00000050: e507 8d3d e971 5e3e d1a4 cabf cae0 66bf
00000060: d74f 063e ebe0 ab3e 71eb 4c3e eda4 103e
00000070: b430 90be 744b a63e f7f3 0ebc 70d8 353c
00000080: d74e babe 0543 8ebd 70ff 8dbe 732a 34b9
00000090: 5ae7 05bf ff25 0d3c 2b48 e2be c948 87be
000000a0: de6c e2bd 388a 38be b01c 54be 6cf5 ddbd
000000b0: 6a26 683c e906 0c3e f72a a7be a7bf ccbe
000000c0: 1f2e f03e ab15 e73c a8d8 ffbd 52f2 64be
000000d0: f09c 9c3d 5a3c acbe 80f6 bc3f aa4d 623f
000000e0: 796e cabd 3653 1bbd e3ed db3c 6929 083e
000000f0: a626 813e fb96 6dbe 8696 9dbe bd48 beba
0.3352664 0.08042394 0.3703446 -0.096063055 0.3213304 0.097998165 0.18019344 0.28783998
0.21905382 -0.080602035 0.40150833 0.21156898 0.106803946 0.16005558 0.08781939 0.29978266
-0.56031847 0.017155644 0.28392285 0.0021937042 0.068862714 0.21723141 -1.5831548 -0.9018675
0.13116394 0.33570036 0.20011689 0.14125414 -0.28162158 0.3247944 -0.008725158 0.011098966
-0.36388275 -0.06946377 -0.27733946 -0.00017181951 -0.5230614 0.008615016 -0.44195685 -0.26422718
-0.11055921 -0.18021476 -0.20714068 -0.10837826 0.014169315 0.13674511 -0.32649967 -0.3998997
0.46910188 0.028208574 -0.12492496 -0.22358063 0.07647121 -0.33639795 1.4762726 0.88399756
-0.09884352 -0.037921153 0.026846832 0.13297047 0.252248 -0.23202126 -0.30778903 -0.0014517527

classifier.fc.bias f4 [2]
00000000: da17 203e 142f 8a3d
0.15634099 0.06747261

adversary.net.0.weight f4 [128, 32]
00000000: f77f a4bc 8617 1a3e bf84 883d 6893 d83d
00000010: f6e8 0bbc f468 04be 88b0 e33d a401 d03d
00000020: 1589 39be 2244 153e 0a31 683d dc24 b3bd
00000030: 1b85 083e 9cc5 123d d513 7c3d ae3b b53d
00000040: 941a 303a c4c1 f6bc ce18 743d 3933 103e
00000050: 2057 efbc cd5e dbbd 8cfa 1a3e 7d21 01be
00000060: 8780 1a3d dc5e 0f3e 15fc b7bd aff6 2fbe
00000070: 8e30 063e 9bba 98bb 3679 4a3e 0aaa 3dbd
00000080: 9f24 993c 960c a43b f5ee 3b3d a922 83bd
00000090: 0d12 9dbd f647 803d b039 d83d a6d8 ab3c
000000a0: d144 1f3e 59a9 453d f5f1 763c 1b80 17be
000000b0: 1772 433c 86ae 15bd 90ea fe3d fd8a e9bd
000000c0: b087 d73c cce6 21bc 1cdc 9c3d 0156 0dbd
000000d0: dbd5 81bd 40d9 9dbd 25af 993a 9da8 153e
000000e0: f0fa f93d 378e 463e 353e c23d fd08 a03d
000000f0: e979 49be 74d9 0bbe 7220 363d 3c33 febd
00000100: 9df2 19be 32dd 193e 0311 b13c 9d6a 2cbe
00000110: 3b36 0f3d bb25 94bd 4add 8bbd 856d 083e
00000120: 48fa 973d 44a8 97bd d2b7 2fbe 30e3 063d
00000130: ad9c 013e 1a0a 04bd dc32 c8bc e513 423e
00000140: 2f51 4fbc a4cb 153e 8dc4 413d 78ca 1c3e
00000150: 259c 3c3e e156 a23d 31c8 1ebe 1918 053e
00000160: 5299 bfbd b53f 053e 3531 77bd 814e bcbd
00000170: 335f c2bd e549 0e3e 141f 0a3e 7b3b b03c
00000180: 7704 a1bd a2f9 df3d b17a efbd 563c 793d
00000190: f42e 1dbe b210 223d e235 fd3d e33f acbd
000001a0: 2a8d 35be 4026 fe3c cf59 d5bd 3b8c 19be
000001b0: 3ac2 c33d da4c 83bd 4819 9b3d 8993 f43d
000001c0: ea2f 593d 67ff 1f3e 0b8d 9cbd e176 e93d
000001d0: 39f5 afbd 8a65 e3bd d94d 3c3e 715a 56be
000001e0: b792 bebd cf24 98bd 857b 893c c8e3 cbbd
000001f0: 966b d23d c7b6 21be ed7a b4bd b78e 11be
00000200: f342 f73c 343c 9c3d 545e c93d 9d18 643d
00000210: 6cc5 073e 6aee 82bd 6259 f83d 1246 9d3c
00000220: 9a6e 2d3d 84aa e0bd 93a6 edbc 19c8 5a3d
00000230: cdc2 1e3d 2a49 c1bd ae20 893d 2464 34be
00000240: 5d8f 19bd 0393 063d 4e75 35bd fe06 aebc
00000250: d4c7 e33c da8b 723d 1f54 723d 46dc 2b3e
00000260: a03e 71bd 8d2c 443e d639 093e 0937 6cbd
00000270: 2c9d d0bc 4d35 0f3e 9895 353d d8f5 f33d
00000280: a2db ec3d a15a d63d fe0a 21be fa67 993b
00000290: 9498 1d3e b4a9 583d faa2 19bc 752c 11bd
000002a0: 3f07 503e 4b8f 333e 8dcd b1bd 580a e8bc
000002b0: 1121 cdbd 6d16 c33d 2e4a 7cbd d210 01be
000002c0: 0d5e c2bd 0f29 c1bc 8b83 0c3e 1f0b 0a3e
000002d0: 3368 84bd edd0 7c3d 936b 163e a903 01be
000002e0: f8fc 1d3d 38d9 23be ccf6 21be 951e 0dbe
000002f0: 1583 5bbd b5bd b03d 8a14 0b3e ec8f 853d
00000300: 423d 09be 7ff3 13be cf22 083e 227f 0abe
00000310: 832e 16be 7c65 843d d02a cdbd 05c4 973d
00000320: 74dc f23d 9ce7 95bc df9d 183e 7ac8 e6bd
00000330: 839b 24be 6616 3ebd 404b 2ebd 4101 2abe
00000340: c425 a7bd 6976 b23d 0d87 a83d 8b34 d4bd
00000350: 105a 823d e3d3 ee3b 41a6 223e d30a bcbd
00000360: 5630 c1bd 0687 cfbd 5c90 913c f962 aebd
00000370: f515 02be dbe4 d83d 4be8 9ebd e0ec a83d
00000380: 9191 5bba 05fb 5fbd 4887 1a3c dd8e 143e
00000390: 3c09 01be 89e2 863b 09f3 3a3e ef5d 5d3e
000003a0: a98a 853d 25fa 623c 5df9 0a3d 506d df3d
000003b0: 6915 00be 2a3a 1b3e 946a 1d3d a3ae 353e
000003c0: 982c 123e 5966 fdbd 27a9 88bc b969 513d
000003d0: d575 e1ba 899a 22be 2da6 a93d b69b 6a3e
000003e0: e39c 183e 6a1a cabd daab 0e3d 99e7 e8bd
000003f0: 414d acbc 3953 1d3d ab46 1c3e 9809 abbd
-0.02008055 0.15048036 0.06665944 0.105749905 -0.008539429 -0.12930661 0.11117655 0.10156563
-0.18118699 0.14576772 0.056687392 -0.08747265 0.13332026 0.035832986 0.06154235 0.088492736
0.00067178276 -0.030121692 0.059593968 0.1408204 -0.02921635 -0.10711441 0.15134639 -0.12610431
0.03772023 0.1400103 -0.08983628 -0.17183946 0.1310446 -0.004660917 0.19772801 -0.04630474
0.01869422 0.005006383 0.045882184 -0.06403095 -0.076694585 0.062637255 0.10557878 0.02097733
0.15553595 0.048257206 0.0150723355 -0.14794962 0.011929057 -0.03654339 0.12447083 -0.11403463
0.026309818 -0.009881686 0.0765917 -0.034505848 -0.06339618 -0.07707453 0.0011725171 0.14615102
0.12206066 0.19390188 0.09484521 0.078142144 -0.19675411 -0.1365717 0.044464536 -0.12412116
-0.15033956 0.15025786 0.021614557 -0.16837545 0.034963828 -0.07233759 -0.06829317 0.13323028
0.07420784 -0.07405141 -0.17159966 0.032931507 0.12657423 -0.032236196 -0.024438314 0.18952902
-0.012653633 0.14628464 0.047306586 0.1531161 0.1841894 0.07926727 -0.15506054 0.12997474
-0.093554154 0.13012584 -0.06034966 -0.09194661 -0.09490814 0.13895376 0.13488418 0.021512737
-0.0786218 0.109362856 -0.116933234 0.060848556 -0.15349942 0.039566703 0.12363793 -0.08410623
-0.17729631 0.031024098 -0.1041752 -0.149949 0.0955853 -0.06411143 0.075731814 0.119422026
0.05302421 0.15624772 -0.07644089 0.113996275 -0.085916944 -0.111033514 0.18389072 -0.20932938
-0.093053274 -0.07428896 0.016782532 -0.09955555 0.10274427 -0.1579238 -0.08812509 -0.14214598
0.030183291 0.0762867 0.09832445 0.055687536 0.13258904 -0.0639313 0.121264234 0.019198451
0.042341806 -0.10970023 -0.029010093 0.053413484 0.038759995 -0.09437783 0.06695686 -0.17616326
-0.037490238 0.032855045 -0.044301324 -0.021243569 0.027805246 0.059215404 0.059162255 0.16783246
-0.058897614 0.1915762 0.13400969 -0.057669673 -0.02546557 0.13985176 0.044332117 0.11912125
0.11565329 0.10466505 -0.1572685 0.0046815844 0.15390235 0.052896217 -0.009377236 -0.03544279
0.20315264 0.1753513 -0.08681784 -0.028325245 -0.100160725 0.09525762 -0.06159418 -0.12604073
-0.09490595 -0.023579149 0.13722055 0.13480805 -0.06465187 0.061722685 0.14689474 -0.12599052
0.038571328 -0.16000831 -0.15816802 -0.13781197 -0.053591806 0.08629934 0.13582054 0.065215915
-0.13402274 -0.14448355 0.13294528 -0.1352506 -0.1466618 0.06464669 -0.100179315 0.07410435
0.11858454 -0.018298917 0.14903973 -0.112687066 -0.16074948 -0.04640808 -0.042552233 -0.16602041
-0.081615 0.08713991 0.08228884 -0.10361584 0.06364834 0.0072884425 0.15883733 -0.09181752
-0.094330475 -0.101331756 0.017769031 -0.08514971 -0.12703688 0.10590526 -0.0775915 0.08248305
-0.0008375878 -0.05468275 0.009431668 0.14507623 -0.12601179 0.0041163606 0.18256773 0.21617864
0.06520588 0.013853584 0.033929218 0.109095216 -0.12508167 0.15158907 0.03843172 0.177424
0.14274824 -0.12373037 -0.01668222 0.051126216 -0.0017201254 -0.15879263 0.08283649 0.22910962
0.14903598 -0.09868319 0.03483186 -0.11372299 -0.021032931 0.038409445 0.15261333 -0.08351439

adversary.net.0.bias f4 [128]
00000000: d22e 233d 39d0 7b3d cc59 b1bd c924 bb3d
00000010: bbe6 1bbe d91d 013e 5753 db3d 4113 153e
00000020: 25f1 dfbd f7e9 13bd 711b 063d 000a 08be
00000030: 69a5 2e3e ba99 63bd 62fc f43c f61b 0abe
00000040: 7115 cbbd ec3b 5cbd dfbe 36be 134d e3bc
00000050: 90da 81bd 9274 4c3b 5b61 893d 63c1 033e
00000060: 67d6 0cbe 5483 21be f14f 5fbd 25de 47bd
00000070: a32e 05be 2aa7 6e3c b51a 17bd 8c0f a2bd
00000080: b0cb 7ebd 5e11 3c3d 9ca8 d8bd 074d 303c
00000090: f8da 943d d165 883d 2df0 593c ee4e 253e
000000a0: e2bc e83d 6da3 ad3d 1dbc 263d a209 bfbd
000000b0: 60e3 8a3d 7fe6 4c3d 22ba 24be bd07 b63d
000000c0: f209 02be 2a32 303e 161d 2bbd 692e c9bd
000000d0: 80f6 dc3b 86e9 a73d 6ef7 d3bd 2fe4 52bd
000000e0: e0fc f7bb 0ba8 2a3e a6d2 26be 12b6 b6bb
000000f0: 13bd e9bd de37 883c 82a1 9fbd e833 4dbd
00000100: 68cb 453d 4501 cfbd 1339 053c e0a3 29be
00000110: d92b 943d 45b8 ddbd f1f8 8f3d d069 adbc
00000120: 8114 2a3c a6ed 5fbd c652 ab3c 2c18 f3bd
00000130: d2f6 403d aa86 00be 16c4 1fbe d9a4 50bd
00000140: 925e febd 15ab cfbd 11a4 33bd 629c 003e
00000150: 0167 97bd ed45 0b3e 762e 89bd e2f1 1bbe
00000160: 333f 373e cc91 4f3d e51b dbbd 8604 38be
00000170: ad9d ca3d a78d efbd 6583 b9bd e277 363d
00000180: 031e 653d d1e7 033e 0390 f23d ffdc ca3d
00000190: a9f6 bfbd 9d68 20be 83e3 0b3e 7417 0ebe
000001a0: a1dc 82bc 5754 1d3d 0309 e7bd d013 36bd
000001b0: 4767 1ebe e5c1 de3d b00a 1fbd 1ff3 183e
000001c0: 9056 cabd 89fc 7ebc a426 b93b ce30 343d
000001d0: a365 fcbc 62c1 f3bd 4a33 9abd 9d4e 12bd
000001e0: ef41 2e3c eca1 e0bd f469 133e a803 00bd
000001f0: a33a 7abd 56d1 8cbd 21a7 283d 6f9b 30be
0.039839573 0.061477873 -0.086597055 0.091378756 -0.15224735 0.12609042 0.10709255 0.14558126
-0.109346665 -0.0361118 0.032741014 -0.13285065 0.17055286 -0.055566527 0.029905502 -0.13487229
-0.09916199 -0.053768083 -0.17846249 -0.027746713 -0.063405156 0.003119741 0.06708022 0.1286674
-0.13753663 -0.15772754 -0.054519597 -0.048795838 -0.13006072 0.014566222 -0.036890704 -0.079131216
-0.06220597 0.045915 -0.10579035 0.010760552 0.072683275 0.06660045 0.013301891 0.1614339
0.113641515 0.084784366 0.040706743 -0.09328009 0.067816496 0.050024506 -0.16086629 0.08888195
-0.12699106 0.17206636 -0.041775785 -0.09823305 0.0067432523 0.08198838 -0.10349928 -0.051487144
-0.007567987 0.16665666 -0.16291294 -0.0055759037 -0.11413016 0.016628202 -0.07794477 -0.05009833
0.048289686 -0.10107664 0.008131283 -0.1656642 0.07234926 -0.10826162 0.07029904 -0.02116862
0.010380865 -0.05467 0.020913493 -0.11869845 0.047110386 -0.1255137 -0.15602145 -0.05093846
-0.124203816 -0.10140053 -0.043857638 0.12559655 -0.07392693 0.13600893 -0.06698315 -0.1522899
0.17895202 0.050676152 -0.1069868 -0.17970476 0.098933555 -0.1169694 -0.09058265 0.044547923
0.055936825 0.128814 0.11843874 0.09905433 -0.093732186 -0.15664907 0.13661008 -0.13876134
-0.015974345 0.03841051 -0.11281016 -0.04445249 -0.15469085 0.10876826 -0.03882855 0.14936493
-0.09879792 -0.015563139 0.0056503583 0.043991856 -0.030810183 -0.11902119 -0.07529314 -0.035719503
0.010635837 -0.10968384 0.14395887 -0.031253487 -0.061091077 -0.06875865 0.04117501 -0.17246793

adversary.net.1.weight f4 [128]
00000000: f9c7 733f 3d2a 733f c158 6d3f 26f9 803f
00000010: b1e9 6f3f 872a 753f b0e7 803f afa7 703f
00000020: bfd7 6b3f 4060 7d3f 9834 7d3f bf00 7c3f
00000030: 866a 743f 1a04 783f 63fa 7c3f f9c3 7b3f
00000040: 6b77 673f 8f3c 803f 0abc 7e3f c64f 7d3f
00000050: 252a 7f3f 5799 7b3f 9967 643f 0e15 703f
00000060: be67 753f 7858 773f dfb3 813f f63c 7d3f
00000070: 2dd3 773f ecd6 813f b88f 7c3f a1c9 753f
00000080: aae1 773f 4e53 813f 86c8 793f 7f6b 803f
00000090: 76b8 713f 9491 773f 358d 813f da4e 7d3f
000000a0: 071d 703f b17a 723f 7769 753f eb14 753f
000000b0: 67a6 713f b34a 843f bff4 813f 3a19 713f
000000c0: b2b7 6e3f 3603 703f 6864 7e3f 081d 783f
000000d0: ba82 653f ec44 723f a479 783f 531d 7c3f
000000e0: 1c13 753f ef3a 773f 56f1 6c3f 988a 793f
000000f0: 77b4 6d3f 14a1 6e3f 4b6a 753f ef3d 7a3f
00000100: f5a0 683f cf6c 6e3f c735 7b3f d269 753f
00000110: 2624 673f 0972 813f 8b44 793f c369 733f
00000120: 7ba1 7c3f 7350 733f 6566 7d3f 66e0 773f
00000130: 46e7 6a3f 04c2 793f 3294 783f 2fba 763f
00000140: 72e1 793f 2201 7c3f 8f8b 7a3f b5bc 6e3f
00000150: c039 7c3f 2a45 793f f7e0 713f 9af2 7c3f
00000160: b056 753f f33f 803f aff0 673f dcef 7a3f
00000170: d132 7d3f d3a3 793f 6456 753f ee9c 743f
00000180: bacb 703f 5fb0 6e3f 846c 7f3f 1a35 793f
00000190: b2ff 7a3f cef2 823f 1a67 783f e796 713f
000001a0: 1f7b 7b3f 3dfb 713f fd45 723f 151b 753f
000001b0: 223c 7e3f 5548 6d3f 5134 813f edb2 733f
000001c0: 96d0 793f 6317 6e3f 889b 713f 91cf 6d3f
000001d0: c5b3 6f3f 811a 763f f583 793f 8049 7c3f
000001e0: 6cc8 7c3f f6c6 793f 317d 7b3f ab3e 793f
000001f0: b096 7e3f de7c 7d3f c5d0 803f 277e 793f
0.9522701 0.94986326 0.9271355 1.0076034 0.9371596 0.95768017 1.0070705 0.94005865
0.9212608 0.9897499 0.98908377 0.9843864 0.9547504 0.9688126 0.9881956 0.98345906
0.9041659 1.0018481 0.99505675 0.9894985 0.9967368 0.98280853 0.8922058 0.93782127
0.95861423 0.9661937 1.0133017 0.98921144 0.96806604 1.0143714 0.986568 0.96010786
0.9682871 1.0103548 0.975716 1.0032805 0.9442209 0.9670651 1.0121218 0.9894844
0.9379429 0.9471846 0.9586405 0.95735043 0.94394535 1.0335296 1.0152816 0.9417912
0.93249047 0.937549 0.9937196 0.969193 0.896526 0.94636416 0.9706061 0.98482245
0.95732284 0.965743 0.9255575 0.974771 0.9285349 0.93214536 0.95865315 0.97750753
0.908706 0.9313478 0.9812893 0.95864594 0.90289533 1.0112926 0.97370213 0.95083255
0.986839 0.9504463 0.98984367 0.9682678 0.91759145 0.9756167 0.9710113 0.96377844
0.9760963 0.9843923 0.978692 0.93256694 0.9852562 0.9737116 0.94483894 0.9880768
0.958354 1.0019516 0.9060163 0.98022246 0.98905665 0.975156 0.95834947 0.95551956
0.9406086 0.9323787 0.99774957 0.9734665 0.9804641 1.0230348 0.9703232 0.94370884
0.9823474 0.94523984 0.94638044 0.9574445 0.99310505 0.92688495 1.0094091 0.95194894
0.975839 0.93004435 0.94377947 0.92894846 0.9363368 0.9613419 0.97466975 0.9854965
0.9874332 0.97569215 0.982379 0.9736125 0.9944868 0.9901866 1.0063711 0.9745812

adversary.net.1.bias f4 [128]
00000000: 6ec9 20bd f6c8 7bbd 3099 12bd 5b42 22bd
00000010: c554 7fbd 804d 16bd 1eb6 30bd 93d3 41bd
00000020: 7772 28bd 6712 00bd 7b69 49bc 0615 cfbc
00000030: 5fc9 b5bc 8b2d 49bd e86e 08bd 9be4 32bd
00000040: 375b b0bd 848d 0abd 9368 06bc 5c1d 24bd
00000050: c44a a1bb 8e6e 0cbd 73b6 aabd d851 dabc
00000060: 0aa5 aabc d9c3 38bd 8900 ac3c 91cf 9cbc
00000070: 6ed8 02bd 4763 93bb 3f8e 04bd 679d a4bd
00000080: a4ea 45bc e750 203d b02d 023d 340f 87bc
00000090: 58de 68bd a989 23bd 7d81 a3bb 7ce2 cb3c
000000a0: bc2c b4bd 19b4 1bbd 71a8 87bd 1285 babc
000000b0: 0232 8bbc 4983 813c 7372 6abd 33c0 b03b
000000c0: cced 98bd 2e91 83bd b0fc 99bc ef2e 24bd
000000d0: 7ab5 f8bd 3ded 51bd a6e2 afbb c676 cdbc
000000e0: 47df 77bd dce4 25bd c2ce b3bd d022 87bc
000000f0: 15c0 bfbc 1e80 87bc df06 2fbd ce75 94bb
00000100: fade 81bd 3193 debb a683 f0bc 9d9a c2bc
00000110: ef98 a8bd 8ed9 213c 9532 1ebd 88ad b7bc
00000120: 4671 b7bc 2576 22bc 9e00 8c3a 0bd2 d6bc
00000130: adbf a4bd ac56 e6bb a6ce 2ebd 43a7 6dbd
00000140: e039 57bd 12ae 8c3b eec3 3bbc 441e 7bbd
00000150: de3d fcbc 5714 3abd e32c 59bd be45 18bc
00000160: 3715 08bd 6607 d4bb e602 36bd 2040 8a3c
00000170: 4c82 babc c367 a5bc 74e7 48bd 158c cebc
00000180: 8c28 5fbd 2405 50bd c4a8 87bc 9b46 0cbd
00000190: 8a99 a9bb a841 acbc a66b 79bd 492c 58bd
000001a0: e910 193c 5132 0cbd 2990 f8bc ac76 62bd
000001b0: 4303 1bbd c8e8 8fbd 7d3e 3d3d 355a 263c
000001c0: b7ce b6bc 086d 99bd ab60 54bd d006 68bd
000001d0: ac79 b2bd 8d28 2abd 20b3 9abc 762e a8bc
000001e0: 2b4a 06bd 9347 67bd 0398 25bd 0845 fcbc
000001f0: 935c d6bc c4c6 173a 28bf 7b3c 24a9 cabc
-0.0392546 -0.06147095 -0.035790622 -0.039614063 -0.062336702 -0.036695004 -0.04314243 -0.047320914
-0.041124787 -0.03126755 -0.012293215 -0.02527858 -0.022190748 -0.0491157 -0.033308893 -0.043675046
-0.08611148 -0.033826366 -0.008203643 -0.04006706 -0.004922243 -0.03428512 -0.08335581 -0.026650354
-0.02083065 -0.04510865 0.020996349 -0.019141944 -0.031944685 -0.0044979188 -0.03236222 -0.080378346
-0.0120798685 0.039139654 0.031781852 -0.016486742 -0.05685267 -0.039926205 -0.0049898014 0.02488827
-0.08797595 -0.03801355 -0.066239245 -0.022768531 -0.016991619 0.015809672 -0.057238054 0.0053940057
-0.07467231 -0.06424175 -0.018797249 -0.040083822 -0.12143989 -0.05125164 -0.005367595 -0.02508105
-0.06051567 -0.04050146 -0.0877967 -0.016496092 -0.023407022 -0.016540583 -0.042731162 -0.004530645
-0.063413575 -0.006792449 -0.02935965 -0.023755366 -0.08232295 0.009878529 -0.038622458 -0.022421613
-0.02239288 -0.009915863 0.0010681336 -0.026223203 -0.08044372 -0.007029375 -0.042677544 -0.05802084
-0.05254543 0.0042932117 -0.0114602875 -0.06130816 -0.03079122 -0.045429554 -0.053021323 -0.009293972
-0.033223357 -0.0064706085 -0.044436358 0.01687628 -0.022767209 -0.020191079 -0.049048856 -0.02521328
-0.054482028 -0.050786152 -0.016559966 -0.034247022 -0.005175774 -0.021027401 -0.060893677 -0.05277661
0.009342411 -0.034227673 -0.030342178 -0.055288956 -0.037844907 -0.070268214 0.04620217 0.010153343
-0.022315366 -0.07491499 -0.051850002 -0.056647122 -0.08714613 -0.04154258 -0.018884242 -0.020529967
-0.032785576 -0.056464743 -0.040428173 -0.030794635 -0.02616719 0.0005789811 0.015365399 -0.024738856

adversary.net.1.running_mean f4 [128]
00000000: 8931 0e3f 5d18 643e ef5d e93e a18c c4be
00000010: 1a60 563e af11 493e 7122 33be b040 113f
00000020: 745d 34be c8a3 7e3e aa04 4bbe 3ce5 f0be
00000030: f0b5 dd3e 71b2 edbe 6d9e 163e 1041 ddbe
00000040: 6084 c7bd dfaf 573e 6fa2 973d 445a 3fbe
00000050: 065e e9be 62a6 ffbe 7e15 23bf 87fc b23e
00000060: 4428 0dbf c345 87bf 4668 2dbe fd00 6f3e
00000070: 38c8 bfbd 52cf 233e a833 3ebf 632c 5fbd
00000080: edd4 2b3e 77e0 7c3e 7131 14bf b8aa 33bf
00000090: 4e0f 113f 3722 af3e d5c5 293e 7317 8c3f
000000a0: 2cb8 3e3f a807 c1ba 00d5 b93e 8d47 dabd
000000b0: 918e 95be 68c6 77be 65fa f0bd 191d f2bb
000000c0: aff4 08bf 7242 063f 7882 eabe b09e c2be
000000d0: bd13 183f 7e19 9dbe 057b fc3c 0ba0 1f3e
000000e0: ccac 1c3e 2264 753e 98aa 8abe 1173 23be
000000f0: 9efe 243d 3413 80be 5e15 753e 3c55 bf3e
00000100: 107b d23e 5c26 1d3f 0d21 aabe 8bdb 2ebe
00000110: 716c bbbe 2267 28bd f69d 833e 56de 96be
00000120: aea7 783e 416c 9c3c 9e56 90be 980e 07bf
00000130: 7679 883e 1127 c03e a2c1 bcbb 0cae 11bf
00000140: a20e a33e 26fd 9d3e 330e b53e 9d6a 303c
00000150: 9781 acbe c386 0e3e aacc 0dbf c73a 403e
00000160: 1540 e33e bb47 02bf 0442 99bc 5b7a 6abe
00000170: 4e38 85be 70c3 69be c09b 9a3d c082 363c
00000180: 7651 083f cd5d d3be 4905 973e 81ff 513e
00000190: ba22 2a3c 1734 2fbf aa0d 513f 0089 5bbd
000001a0: 4605 da3d 0066 cbbe b17e 55be b4de 363d
000001b0: 9348 1fbf de97 3f3f 7807 6e3d d2b3 343f
000001c0: 387c 823e 5a8e af3e c097 ef3e 569c 52be
000001d0: bda4 84be 8b7d 993d 7241 cfbe 8e0b b8bd
000001e0: 3609 823e 5c72 a7be fcad 19be ec2f dbbe
000001f0: df7c 673d cd3e 033f 4513 86be 5f38 173e
0.55544335 0.22274919 0.45579478 -0.3838854 0.20935097 0.19635652 -0.17493607 0.5673933
-0.17613775 0.24867165 -0.19825998 -0.47049892 0.4330287 -0.46425202 0.14708872 -0.432137
-0.097420454 0.21063183 0.074040286 -0.18686777 -0.45579547 -0.49931628 -0.6370467 0.34958288
-0.55139565 -1.0568165 -0.16934308 0.23340221 -0.093643606 0.15997055 -0.7429757 -0.05448569
0.16780443 0.24695002 -0.5788794 -0.7018237 0.5666398 0.3420579 0.16579373 1.0944656
0.74499774 -0.0014727013 0.3629532 -0.106581785 -0.29210332 -0.2419678 -0.11766509 -0.0073887226
-0.5349836 0.5244514 -0.45802665 -0.38011694 0.5940512 -0.30683511 0.030820379 0.15588395
0.15300292 0.23963979 -0.27083278 -0.15961863 0.040281884 -0.2501465 0.23933932 0.37369716
0.41109514 0.61386657 -0.3322834 -0.17075936 -0.36606172 -0.04111398 0.25706452 -0.29466504
0.24282715 0.019094588 -0.28191084 -0.52756643 0.26655167 0.37529805 -0.0057603875 -0.569062
0.318471 0.308572 0.35362396 0.010767606 -0.3369262 0.13918595 -0.5539042 0.18772422
0.44384828 -0.508907 -0.018708237 -0.22898237 -0.2601952 -0.2282846 0.07549238 0.011139572
0.532493 -0.41282502 0.2949622 0.20507623 0.010384256 -0.6843886 0.81661475 -0.05359745
0.10645537 -0.39726257 -0.2084911 0.04464598 -0.62220114 0.74841106 0.05811259 0.70586884
0.25485396 0.34288293 0.46795464 -0.2056745 -0.25906935 0.074946485 -0.40479618 -0.08986579
0.25397652 -0.32704437 -0.15007776 -0.4281 0.05651557 0.512677 -0.26186576 0.14767598

adversary.net.1.running_var f4 [128]
00000000: 60e6 0b3d f97b 293d 4f6b b93d 75b4 043e
00000010: f27c 513d 31b6 bd3c 4ac9 df3c f7b9 9f3c
00000020: 7f56 2d3c 7b7a 1c3c ca51 d03c f350 903d
00000030: f58e cc3d 0927 fb3c 7f36 913c 6ee3 6e3c
00000040: 07f7 8d3d 4265 583c 9f9f 653d 6fe5 923d
00000050: c913 8f3d 1f03 893d 2e90 223e e672 d13d
00000060: 4464 973d 9f44 193e 316e e13b 0d0e 6d3c
00000070: db6c a43c 3c77 333d f88f 9f3d 3d59 393c
00000080: 73d1 9e3d e2f4 a93c f1c3 6a3d df1f 553d
00000090: 9e6f f73c 0ca9 b33c 4fc5 683c 0a88 0b3e
000000a0: 431a 023e ae57 243e 7131 8c3d 622a 4b3d
000000b0: 71a6 fb3c 07d6 4f3c eb2d 263c c05d d93d
000000c0: dc02 fa3c a6a0 073d 3cc5 7a3d 461d 9c3c
000000d0: 5427 c93d 78da e83d 5e95 813d b62d ae3c
000000e0: 61f6 1f3d ded6 7e3c aac7 8e3d f6d4 8d3c
000000f0: 0790 3b3d dc3d 933d 4f59 023d c60e 4a3d
00000100: c840 083d d630 903d bc2e 0d3c edcd 5a3c
00000110: 8f80 293d 4030 c33c ddc4 1e3d bb6c 813d
00000120: 4108 303d a834 363d 4301 e33c bd6c bd3c
00000130: c5e4 8b3d 44d6 d43c aef8 9b3c f7c2 453d
00000140: be97 fb3c c567 343d 18ba 4f3d 93c1 7a3d
00000150: 4aa8 3b3d 6679 233c 7b96 4c3d a288 473d
00000160: a9bf a13c 5d53 c13d 3225 033d 3baf 2e3d
00000170: 7e9c 1b3c 0d4b 503d 2488 8b3c d499 153d
00000180: 8c0c 463d 0f27 253e ea1a 0d3d 060d a13c
00000190: ee87 743c d804 1f3e f499 cf3d caf9 373d
000001a0: ec46 013d ccfb d43d 7365 383d 1842 9e3c
000001b0: a6ec 203d f0c5 803d 8a33 273d 1278 133d
000001c0: 7243 043d 29c7 033e b61c b33c 7dee 193d
000001d0: 808b 153d 2fb4 b03c 4cb6 843d 4eb0 c13d
000001e0: 8ff5 e43c faed 683d 609a a13c 2159 3c3d
000001f0: f849 213d 4bc1 533d 52fe 473c db88 223e
0.03415525 0.041377995 0.090536706 0.12959464 0.051144548 0.023158165 0.027317662 0.019497855
0.010579704 0.009550686 0.025429625 0.0704669 0.099882044 0.030658262 0.017726181 0.014580591
0.06931882 0.0132077355 0.05606043 0.07172667 0.069861956 0.066900484 0.15875313 0.10226993
0.07392171 0.14967583 0.006879591 0.014468682 0.020071438 0.043814883 0.07791132 0.01131278
0.07754793 0.020746652 0.05731577 0.052032348 0.03020459 0.021931194 0.014207198 0.13626114
0.1270533 0.16049072 0.06845368 0.049600966 0.030719014 0.012685305 0.010142784 0.106135845
0.030518942 0.03311219 0.061223254 0.019056927 0.09821954 0.113697946 0.06327318 0.021262031
0.039053325 0.015554158 0.06971677 0.017313462 0.045791652 0.07189533 0.031823453 0.049330495
0.033264905 0.07040565 0.008617099 0.013354761 0.04138237 0.023826718 0.038761962 0.06319567
0.04297662 0.04448381 0.027710563 0.02312314 0.06830744 0.025981076 0.019039478 0.048281636
0.030712005 0.044044275 0.050714582 0.061219763 0.04581479 0.009977674 0.049948197 0.048714288
0.019744711 0.094397284 0.032017894 0.04264758 0.00949776 0.050852824 0.01703269 0.036523655
0.04835181 0.16128181 0.034449495 0.01965953 0.014924986 0.15529191 0.10136786 0.04491595
0.031561777 0.10399589 0.045018625 0.019318625 0.039288186 0.062877536 0.040820636 0.03600318
0.032290883 0.12868942 0.021864276 0.037580956 0.03650999 0.021570293 0.06480083 0.094574556
0.027949123 0.056867577 0.019726932 0.045983437 0.039377183 0.05169801 0.012206631 0.15872519

adversary.net.3.weight f4 [64, 128]
00000000: d611 74bc bb24 f43c 1d57 463d 4b1f 273d
00000010: 944c 6cb9 4842 cbbd b90d babc 8558 55bd
00000020: 0c1a 42bd 7bb3 9f3d bf3c 2abd 9d91 e2bd
00000030: 810b febd dab3 fcbd c8d1 a6bc c213 8abd
00000040: 168f 1b3d 5c9b a23d b101 5abd d78d c6bd
00000050: b287 9f3c fdc8 f23c ecbc 133b 9585 163c
00000060: 50d2 30bd 1fee a3bc efd9 93bd 0853 d1bd
00000070: 4ff7 6fbd 03c2 fdbc 400c ccbc 43e1 96bd
00000080: d76d 92bd bb12 f2bd b2fe c3bd 6d3d 03bd
00000090: 6a7f 873d 1d58 2c3d 49cc 7d3c 8941 8c3d
000000a0: eef3 babd c714 f43c e79d b3bc f448 e1bd
000000b0: a792 10bd f481 063d fb52 04be d643 b7bd
000000c0: b6b7 c03c c1f4 7c3d a279 32bd d866 10bd
000000d0: 713d a83d b973 27bd 65f1 f3bd 56d1 93bd
000000e0: 757e 8b3d ea96 a53d 0379 cbbd 56eb 99bd
000000f0: 617b ba3a c6a2 843c bcc8 3f3d 5c72 d63c
00000100: 63bb 213d 0c94 71bd 4813 ddbd 2a36 a2bd
00000110: 6df0 27bd 799d 363c ca7d 1ebd 6056 83bd
00000120: 6ee2 d2bd 87cf d2bd 9a6d 1d3c 2a7d 6d3d
00000130: a7e5 7c3a c854 cfbc a2ae cbbc 1397 9dbd
00000140: 934c 5bbd f753 a63c 0166 3c3d 7a23 463d
00000150: 0dfb 0dbd 0b11 1d3d e706 89bc 5dbb d2bd
00000160: 3b52 0ebd 1fd4 cdbd 95a1 73bd f297 263d
00000170: f142 af3b a107 fbbc 7ffd 153d f0b7 66bd
00000180: 7f44 92bd e2fb 553c 4136 673d 7723 97bd
00000190: b244 ed3c ace2 f73c 4741 323d 140d 763d
000001a0: 185b b83c ebfe 263d de33 293d 688f ecbc
000001b0: cf84 19bd 5e15 9cb9 8692 78bd e0af c4bd
000001c0: 3f3f c4bd cc4e 94bd 5717 bc3c 0f9e 9bbd
000001d0: a884 2ebd cfa2 c4bd 51fb a8bd 4f87 31bc
000001e0: 05bb 273d 5271 5ebd 3151 acbd c4e5 0e3d
000001f0: d6b4 92bd ff08 e0bc ee6e d0bc 92f2 6bbd
00000200: 2803 c73c 3a49 a73d fcdd a2bc 41f3 923d
00000210: f869 ee3c 69b4 b8bd 5666 5ebc ef37 0cbd
00000220: c626 83bd a55e 9e3d d4fc 6fbd e13f c3bc
00000230: b013 7bbd 2f1b 7bbd 35c3 fbbd 8a03 39bb
00000240: 085c 35bd acc6 803b bde2 fc3c f76b 9fbd
00000250: 3c02 983d c842 8fbd e164 ac3a c84a 1c3d
00000260: efeb 16bd a676 2cbc fdd0 c5bd eb15 c4bc
00000270: c2f2 58bc d889 d9bc c54b a7bd 7885 b9bd
00000280: 031c fe3c 92fe 52bd 5be4 c9bd ebb1 d3bd
00000290: 3ee9 b1bd 45e6 fbbd 2bca 663d 0047 2dbd
000002a0: c205 36b8 2bc7 833c 7ad1 aabd 184e 67bc
000002b0: 6465 5c3c f237 973c cfd9 793c 6d07 4f3d
000002c0: 933f 8c3d 37c4 4d3d f352 233d 10e4 dabb
000002d0: ddf4 893d 5cfc ebbc fd96 21be c954 3bbd
000002e0: 0e29 5fb8 2655 efbb 1466 12be e451 273d
000002f0: bd20 12be 5d0c bebd f530 a2bc fc16 cfbd
00000300: 93d7 2c3d 26eb ea3c 172e 4f3d 227b 96ba
00000310: 3c6f 373d 9357 4d3c 7ed6 5fbd 92fa 72bd
00000320: 3209 44bd c5ae 6b3d 01e8 1cbd bbe3 d6bb
00000330: ed77 bcbd 321b a2bd a92f cf3c b2b3 46bd
00000340: 7750 f3bc 5445 c1bd a1d1 473d 6dad df3c
00000350: d64f a5bd ae7c 43bd 38f5 b8bd be27 61bc
00000360: bf89 bfbd 7f2d 303c 6567 15bb c8e5 38bc
00000370: ff7f b13d 44c1 6bbd 7401 dcbd d0d1 0fbd
00000380: 0f59 e1bd c386 1fbc 9eae 4cbd c8f0 5ebd
00000390: 85c4 663d eb0c 3a3d b341 c13b 9bb9 75bc
000003a0: c4cb 72bd 5329 1cbb 46aa 8d3d 92ff cdbd
000003b0: 73c0 da3c aaa9 eb3c 0f5c bdbd db25 60bc
000003c0: 40ac a93b cfb9 9b3d 300d be3d 36db 5f3d
000003d0: d224 9bbd f2c6 2d3d 3b29 283d 52eb 943d
000003e0: 6e1f b13c cdc9 a2bd a1ca 93bd 3782 b8bd
000003f0: 04c6 8c3b 7d1c 19be a29f c0bb cec8 29bd
-0.014896831 0.02980267 0.04842292 0.040801328 -0.00022535241 -0.099247515 -0.022711622 -0.052086372
-0.04738812 0.07797905 -0.04156184 -0.1106293 -0.12404538 -0.123389915 -0.020363703 -0.0674205
0.037978254 0.07939789 -0.05322427 -0.096950226 0.019473884 0.029636854 0.0022543026 0.009187122
-0.04316932 -0.020011006 -0.07219302 -0.10220915 -0.05858546 -0.030976301 -0.024908185 -0.07367184
-0.071498565 -0.11819979 -0.09570064 -0.032041002 0.06616099 0.04207622 0.0154906 0.06848437
-0.09128557 0.029795064 -0.02192588 -0.11000243 -0.03529611 0.032838777 -0.1292228 -0.089484856
0.0235251 0.061756853 -0.04357303 -0.03525433 0.08214844 -0.040881846 -0.11911277 -0.07217662
0.06811229 0.08085425 -0.099351905 -0.0751559 0.0014227444 0.016190898 0.046822295 0.026177578
0.039485347 -0.05897908 -0.10794693 -0.07920487 -0.041000772 0.011145943 -0.03869418 -0.06412959
-0.10297094 -0.10293489 0.009608651 0.057980694 0.0009647258 -0.025308982 -0.024863545 -0.07694831
-0.053539824 0.02030371 0.045995716 0.048373677 -0.03466325 0.03834633 -0.016726924 -0.10289643
-0.03474639 -0.100502245 -0.05948027 0.04067225 0.005348556 -0.030643286 0.036618706 -0.05632776
-0.07141971 0.013060542 0.056448225 -0.07379811 0.02896342 0.030259453 0.043519285 0.060071066
0.022504374 0.040770452 0.04130923 -0.028876975 -0.03748017 -0.00029770558 -0.06068661 -0.09603858
-0.09582376 -0.07241592 0.022960348 -0.07598507 -0.04260698 -0.09601366 -0.0825106 -0.010835483
0.04094984 -0.05430729 -0.084139235 0.03488709 -0.07163398 -0.02734804 -0.02544352 -0.05760438
0.024293497 0.08168264 -0.019881241 0.07175303 0.029103264 -0.090187855 -0.0135742035 -0.03423303
-0.0640388 0.07732896 -0.058590725 -0.02383417 -0.061298072 -0.06130522 -0.12293092 -0.002823087
-0.04427722 0.0039299335 0.030869836 -0.077842645 0.07422301 -0.069951594 0.0013152623 0.038157254
-0.036846098 -0.010526335 -0.09659002 -0.023936233 -0.013241472 -0.026554987 -0.08168749 -0.0905866
0.031019216 -0.05151231 -0.098580085 -0.103366695 -0.086870655 -0.1229978 0.056345146 -0.04230404
-4.3397544e-05 0.016086182 -0.08340736 -0.01411774 0.013451908 0.018459294 0.0152496835 0.05054419
0.06848063 0.050235953 0.03987403 -0.006680019 0.06736157 -0.028806858 -0.15780254 -0.045735154
-5.320558e-05 -0.0073038517 -0.14296752 0.04084958 -0.14270301 -0.09279702 -0.019798735 -0.10111806
0.042197775 0.02867658 0.050581064 -0.0011480788 0.044783816 0.012533086 -0.054647915 -0.059320994
-0.04786033 0.05753972 -0.038307194 -0.0065579093 -0.092025615 -0.07915343 0.02529128 -0.048511215
-0.029701455 -0.094370514 0.048783902 0.027304376 -0.08071868 -0.047726326 -0.09031147 -0.013742385
-0.09352445 0.010753035 -0.0022797224 -0.011285253 0.086669914 -0.05755736 -0.10742465 -0.035112202
-0.11003315 -0.00973672 -0.049971215 -0.054428846 0.05633976 0.045422476 0.0058977245 -0.014997865
-0.059276357 -0.0023828342 0.06917243 -0.10058512 0.026703095 0.028767426 -0.092460744 -0.0136809
0.0051780045 0.076037996 0.09279859 0.054652415 -0.07575382 0.042426057 0.041054945 0.07271446
0.021621432 -0.07948647 -0.07216383 -0.090092115 0.0042960662 -0.14952274 -0.0058784047 -0.041451268

adversary.net.3.bias f4 [64]
00000000: 0737 3c3d 9c33 2fbd 9cf5 93bd 690e ae3c
00000010: bccc 2abd 8195 903b c9ca 18bd 8342 b7bd
00000020: c94d ab3c 5d78 463d 8c1c 803c 9228 5abd
00000030: 426a f2bc 5bc1 193d ff52 46bd 6706 bdbd
00000040: 272a 4bbd 9df5 edbd fd75 453c 8696 d4b9
00000050: 07f7 c9bd f0e0 8fbc 87c9 583d 36be 5bbd
00000060: d632 053d 7b17 7abd 9c02 ffbc 19bd c1bc
00000070: e867 1f3d a76b 16bb 23ce 8dbd 6bff 3bbd
00000080: 3807 933d 8532 bbbd 34b1 e03c 3cee a6bd
00000090: f8f7 80bd 1c92 8f3d 17d1 f43b 1915 73bd
000000a0: 0dbb b53c 306a 82bd 36fc 62bd 7080 533d
000000b0: aea6 a5bb 2881 67bc f4a7 acbd 7421 ff3a
000000c0: f0e2 08be 41b2 babd 6d51 c0bd ad2d 64bd
000000d0: f7c4 00bd 5402 c73c f6d9 98bc 47b9 a33b
000000e0: 010d 633d 74c5 da3d 152e c3bc 6a87 5e3d
000000f0: 7bb0 6c3d 93d6 043d 321a 66bd d0ed debd
0.045950916 -0.042773828 -0.07224581 0.021247106 -0.041699156 0.0044123535 -0.037302766 -0.08948233
0.020911114 0.04845463 0.015638612 -0.053261347 -0.029591683 0.037537914 -0.048418995 -0.09229737
-0.049600746 -0.11619113 0.012052056 -0.0004054794 -0.0986157 -0.017563313 0.052926566 -0.053648196
0.032519184 -0.06105755 -0.031129174 -0.02364974 0.038917452 -0.002295235 -0.06924083 -0.045897882
0.07179111 -0.09140495 0.027428247 -0.08150908 -0.06297296 0.0701029 0.0074712145 -0.059346292
0.02218392 -0.0636791 -0.05541631 0.05163616 -0.00505527 -0.014129914 -0.08430472 0.0019464926
-0.1336782 -0.091160305 -0.09390531 -0.055707622 -0.03143784 0.024293102 -0.01865862 0.004996452
0.055432323 0.106821924 -0.023825685 0.05432836 0.057785492 0.032431196 -0.056177326 -0.10885203

adversary.net.5.weight f4 [2, 64]
00000000: 12d1 a53d dd1f 09bd 880a 8cbd 40c9 1bbd
00000010: 5ae7 953c ca44 97bd 8efc 35bd c7b2 0bbd
00000020: 42c3 ce3c 7f9e 313b 5d5b 9f3d 6466 223d
00000030: 8d0f d5bc 2669 00bc 4a0c 81bc cc00 a33c
00000040: f85f 5ebd f968 c13c 7254 483d 4b7e f83c
00000050: a407 f43c 3286 96bc d187 d5bd 8e74 b7bc
00000060: 6886 38bd 11e7 ce3d 1709 1f3c fabc 45bd
00000070: 99d9 413d 551d 853d 10e1 43bd 3f54 e4bc
00000080: 08ec b3bc 50ce 9c3d 3e5c 923d c33e 1d3d
00000090: 939f 883d f5a3 ad3c 6927 51bd 27c9 b2bc
000000a0: 5b1f c83d 097f 48bc 03c9 8c3c cac8 093d
000000b0: 6a9e 5c3d 5033 013c ad91 90bc 08f0 38bd
000000c0: fa7f 823c e908 c9ba 524a 82bd 30cf 913d
000000d0: acf5 ae3d c60e f93c 24b9 9c3c b5ae e53c
000000e0: 015b 8d3d 11a2 cdbd 0d53 b63c 285c bebc
000000f0: 8717 103d c69c 843c a778 7abb 9a75 76bd
00000100: c233 c9bd 062f 60bd dc6f 74bd f3b0 70bd
00000110: b2cf dabb cbb8 073b 2c2b 8ebd 3972 04bd
00000120: 753c ed3c ad69 94bb d9a5 a03d 90cc a53c
00000130: 1b56 4fbc ada2 c23d 3457 17bd e6bf eabd
00000140: 4ac8 7bbd e09a 1fbc db47 79bc b921 9d3d
00000150: 3275 c5bd 0418 a0bc 64ea 393c 9e34 90bc
00000160: 389a 173c e65a da3d 2d48 313c b232 49bd
00000170: 7259 be3c 0bb8 0abb 44b7 b53c 0176 d5bd
00000180: 586e 873d 2e57 923d 82a6 153d b087 bb3c
00000190: 855b b13c 3a16 8b3d 5b20 00bd 952c dfbc
000001a0: 9943 c03d 5e7d 173d 146f 40bc 506d 853b
000001b0: fe89 9cbd 2a98 78bc 2846 0ebd f83e b8bd
000001c0: d90a 853d 03e3 0a3c c241 d2bc 8368 d83c
000001d0: 8f2b b23c fcaa 363d 1895 933c 516c 70bc
000001e0: 78d3 563d 3d01 9fbd 7886 103d 32f2 11bc
000001f0: 8ec5 9cbd a433 583d 7ede 32bd 4bb3 84bd
0.080965176 -0.033477653 -0.06837946 -0.038033724 0.018298794 -0.07386167 -0.044430308 -0.034106042
0.02523959 0.0027102528 0.07781098 0.03964843 -0.026008392 -0.007837569 -0.01575293 0.01989784
-0.05429074 0.023609625 0.04890866 0.030333659 0.0297888 -0.018374536 -0.104262955 -0.022394445
-0.045050055 0.10102666 0.009706757 -0.048275925 0.047326658 0.06499735 -0.04782206 -0.027872203
-0.021963134 0.076565385 0.071465 0.038389932 0.06671061 0.021196345 -0.051062975 -0.021824433
0.097716056 -0.012237319 0.017185694 0.033638753 0.053862013 0.007885769 -0.017647589 -0.045150787
0.015930165 -0.0015337738 -0.06361832 0.07119596 0.08542952 0.030402552 0.01913125 0.028037408
0.06902123 -0.10040677 0.022256399 -0.023237303 0.035178687 0.016188037 -0.0038218887 -0.060170747
-0.09824325 -0.054732345 -0.05967699 -0.058762502 -0.0066775912 0.002070951 -0.06941828 -0.032335494
0.028959492 -0.004529199 0.07844133 0.020239145 -0.0126548065 0.09503684 -0.036948398 -0.11462383
-0.061470307 -0.009741515 -0.015214886 0.07672448 -0.09641494 -0.019542702 0.011347387 -0.017603215
0.009253077 0.10661869 0.010820431 -0.049120612 0.02323601 -0.0021166827 0.022182114 -0.10422898
0.06612843 0.071455345 0.036535747 0.02289185 0.021650085 0.06791349 -0.031280857 -0.027242938
0.09387893 0.036984794 -0.011745233 0.004071869 -0.076435074 -0.0151729975 -0.034734875 -0.08996385
0.0649621 0.008476975 -0.025666121 0.026417023 0.021749286 0.044596657 0.01801543 -0.014674262
0.052447766 -0.07763908 0.03528449 -0.0089078415 -0.07654868 0.052783623 -0.043669216 -0.0647951

adversary.net.5.bias f4 [2]
00000000: 9be1 bb3d efeb b13d
0.0917389 0.08687579
