best_adversarial_pipeline_checkpoint.pth (torch, 207247 bytes, 44 tensors)

feature_extractor.net.0.weight f4 [64, 7]
0	0xbed0526a	-0.40687877
1	0x3d1a534e	0.0376771
2	0xbeb7c82b	-0.35894904
3	0x3e0f2921	0.13980533
4	0xbd5018c6	-0.050804876
5	0x3e23bb8f	0.15989517
6	0xbdeec2f9	-0.11658282
7	0x3d9461ca	0.07245214
8	0x3e07e831	0.13272168
9	0x3dc008c0	0.09376669
10	0xbc1433c2	-0.009045543
11	0xbe39c98f	-0.18143295
12	0x3e8f859b	0.2803162
13	0x3e3b8fd3	0.18316583
14	0x3e0a8cbd	0.1353025
15	0xbeb87c2e	-0.36032242
16	0x3d1eb428	0.03874603
17	0xbe8235c5	-0.25431648
18	0xbddef524	-0.108866006
19	0x3d047557	0.032338466
20	0x3ee84453	0.45364627
21	0xbdc5ea0a	-0.0966378
22	0xbd4edc71	-0.050503198
23	0xbe79718f	-0.24359725
24	0x3c20856d	0.009797436
25	0x3c8cff91	0.017211707
26	0x3e2eeb52	0.17081955
27	0xbdc1e465	-0.09467391
28	0xbee8095f	-0.4531965
29	0xbb780b2e	-0.003784846
30	0x3d4164b5	0.047215182
31	0x3d1744fb	0.03693102
32	0xbeb347fb	-0.35015854
33	0x3df9ca79	0.12196822
34	0x3eb657ec	0.35613954
35	0xbe90823d	-0.28224364
36	0xbea0dfcf	-0.31420752
37	0x3ccad15b	0.024758032
38	0x3eb81b3a	0.35958272
39	0xbe55d81b	-0.20883219
40	0x3c727799	0.014799022
41	0xbe9e80c0	-0.30957603
42	0xbe337cae	-0.1752803
43	0xbcfe797d	-0.03106379
44	0xbece56eb	-0.40300688
45	0xbe36497d	-0.17801471
46	0xbc488dae	-0.01224081
47	0xbd2d949e	-0.04237806
48	0x3e954d44	0.29160511
49	0x3d17e233	0.037080955
50	0xbe224955	-0.15848286
51	0xbc208d47	-0.009799308
52	0xbe4fc887	-0.20291339
53	0xbe7fd502	-0.249836
54	0x3d3e344d	0.046436597
55	0xbea02c2d	-0.31283703
56	0x3decf123	0.11569431
57	0xbe259226	-0.16169032
58	0x3e63f3c2	0.22260955
59	0x3e9b86c9	0.3037627
60	0xbececd4e	-0.4039101
61	0xbdf76cdd	-0.12081311
62	0xbc39e46b	-0.011345963
63	0x3e9a612b	0.30152258
64	0xbe61aa76	-0.22037682
65	0xbf04144a	-0.5159346
66	0xbe733718	-0.23751485
67	0xbea6f4ba	-0.32608587
68	0xbe86ac84	-0.26303494
69	0x3ec4f4c9	0.38468006
70	0x3e039436	0.12849507
71	0x3e968447	0.29397795
72	0xbebbfe0a	-0.36717254
73	0xbea11b5b	-0.31466183
74	0x3e6ac679	0.22927274
75	0xbdf1414f	-0.11780035
76	0x3ea2144b	0.31656107
77	0x3db33742	0.08750774
78	0x3e90501c	0.2818612
79	0xbe4f4305	-0.2024041
80	0xbb596105	-0.00331694
81	0xbedaa537	-0.42704174
82	0x3c894d56	0.01676051
83	0x3ecffa9f	0.40620896
84	0xbe605b03	-0.21909718
85	0x3ea182a1	0.31544974
86	0x3e759a18	0.23984563
87	0x3e587167	0.2113701
88	0xbe5e474d	-0.21706887
89	0x3e325d8d	0.174185
90	0x3e938916	0.28815526
91	0x3ca50651	0.020144613
92	0x3eac1d5d	0.33616152
93	0x3ebdfa4c	0.37105024
94	0x3e96a385	0.2942163
95	0xbe0a7ccc	-0.13524169
96	0xbdf660e2	-0.12030198
97	0x3dd41c32	0.1035694
98	0xbdb633e7	-0.08896618
99	0x3e0da27a	0.13831511
100	0xbdc45106	-0.095857665
101	0xbdc869d7	-0.09785812
102	0xbc8e7fc4	-0.017394908
103	0xbda9e7f5	-0.082961954
104	0xbe7fa330	-0.24964595
105	0xbba061f0	-0.0048944876
106	0xbec87376	-0.3915059
107	0x3e905286	0.2818796
108	0x3ea8df95	0.3298308
109	0xbe4682bf	-0.19385813
110	0xbef31571	-0.47477296
111	0xbeae4d5c	-0.34043396
112	0xbe795692	-0.2434943
113	0x3cd5153e	0.026011106
114	0x3ca583da	0.020204473
115	0xbd88d042	-0.06680347
116	0xbe5a65b2	-0.21327856
117	0x3df5c702	0.12000848
118	0x3eced165	0.4039413
119	0x3e687929	0.22702469
120	0x3e91bf5e	0.28466314
121	0xbe9e3297	-0.30897972
122	0x3e80b5fd	0.25138846
123	0xbecd53c2	-0.40102965
124	0xbe459ed4	-0.1929887
125	0xbe634f5c	-0.22198242
126	0x3e121359	0.14265193
127	0x3e5b3d86	0.21410188
128	0xbe63745c	-0.22212356
129	0x3c9e3247	0.019311083
130	0x3dc38193	0.09546199
131	0x3e4f3470	0.20234847
132	0xbda4c213	-0.08044829
133	0xbed595e5	-0.41715923
134	0xbee0cad6	-0.43904752
135	0x3d260fc6	0.040542386
136	0xbd67bba8	-0.056575447
137	0xbd7b604f	-0.061371144
138	0xbec13978	-0.37739158
139	0xbc8be408	-0.017076507
140	0x3e7135df	0.23555706
141	0xbea8d15f	-0.32972237
142	0x3e69c55b	0.22829191
143	0x3db8cf72	0.09023942
144	0xbbf9a3ff	-0.007618427
145	0xbe4e73f5	-0.20161422
146	0xbe76c5e9	-0.24098934
147	0x3e1c5fa1	0.15270855
148	0xbea7f859	-0.32806662
149	0x3e9057b7	0.2819192
150	0x3dffdd8e	0.1249343
151	0x3dac6270	0.08417213
152	0x3e01cca8	0.12675726
153	0x3d8c5556	0.06852214
154	0x3e1428bf	0.14468668
155	0xbc9dba3f	-0.019253848
156	0xbef476ca	-0.4774688
157	0x3e0db39f	0.13838051
158	0xbeaf403a	-0.34228688
159	0xbd25803e	-0.040405504
160	0xbcee1d05	-0.029066572
161	0x3ea937b7	0.3305032
162	0x3e56a9a2	0.20963147
163	0x3eb4b367	0.35293123
164	0xbebbf239	-0.3670824
165	0xbdf4056d	-0.119150974
166	0xbc83d624	-0.016093321
167	0xbcdfccc3	-0.027319318
168	0x3c91e64a	0.017810006
169	0x3e2912aa	0.16511026
170	0x3d941332	0.07230224
171	0x3e1ed72e	0.15511772
172	0x3ec0bee9	0.37645653
173	0x3e30f758	0.17281854
174	0xbe289253	-0.16462068
175	0x3df0dbd3	0.11760678
176	0x3e9b39c4	0.3031751
177	0xbd362d4a	-0.044476785
178	0xbeb331cb	-0.34998927
179	0x3cb30f4c	0.02185788
180	0x3e1d6327	0.15369855
181	0x3e4c580a	0.19955459
182	0x3d2df4b9	0.042469714
183	0xbe2d5df0	-0.16930366
184	0xbecc27cb	-0.3987411
185	0xbeac0e48	-0.33604646
186	0xbe1008a1	-0.14065792
187	0x3e51ac83	0.20475964
188	0x3e60fcbf	0.21971415
189	0x3eabf971	0.33588746
190	0xbe8c26e0	-0.2737341
191	0x3e0c58fc	0.1370582
192	0xbeb87763	-0.36028585
193	0xbe9744ad	-0.29544583
194	0xbea3c185	-0.3198358
195	0xbd39c32d	-0.04535215
196	0x3d4694db	0.048481803
197	0x3ea42c84	0.32065213
198	0x3e4a4215	0.19751771
199	0xbec47790	-0.3837247
200	0xbe486b6d	-0.1957223
201	0x3e8884cc	0.26663816
202	0x3e5b51f7	0.21417986
203	0xbe769ac8	-0.24082482
204	0xbde854f4	-0.113443285
205	0x3e9a7561	0.30167678
206	0xbccd6079	-0.025070416
207	0x3e96b013	0.2943121
208	0xbec3f887	-0.3827555
209	0x3e691c67	0.22764741
210	0xbbf5c869	-0.0075006974
211	0x3e6dbd14	0.23216659
212	0x3eb941b3	0.36182937
213	0xbe5743a3	-0.21021895
214	0xbdb2b537	-0.0872597
215	0xbe93271f	-0.28740785
216	0x3e9e4700	0.30913544
217	0xbebddd9f	-0.37083146
218	0xbeadd174	-0.33948863
219	0xbe512122	-0.20422795
220	0xbe967caf	-0.29392
221	0x3d99e950	0.07515204
222	0x3d39d031	0.045364562
223	0xbe983516	-0.29728
224	0x3e0f61a2	0.14002088
225	0x3e61a267	0.22034608
226	0x3dba613c	0.09100577
227	0x3cc3a2bf	0.023881314
228	0x3eb6bbdb	0.35690197
229	0xbe150ae1	-0.14554931
230	0x3dac6dd2	0.08419384
231	0xbeb84631	-0.35991052
232	0x3e07d07c	0.13263124
233	0xbdab26ae	-0.08356987
234	0x3cfe75a7	0.03106196
235	0xbd5b7106	-0.053574584
236	0x3e402b42	0.18766502
237	0xbe96fc5a	-0.29489404
238	0xbd7a3208	-0.06108287
239	0x3db81fd9	0.089904495
240	0xbead0a83	-0.33797082
241	0xbc29527d	-0.010334608
242	0xbdc039ec	-0.09386048
243	0xbe71e277	-0.23621546
244	0xbe827278	-0.25477958
245	0xbe93ed6a	-0.2889207
246	0x3e3dd881	0.18539621
247	0xbe83a377	-0.2571065
248	0x3e8dacef	0.27671
249	0xbe96b903	-0.29438028
250	0x3eb13e8d	0.34618035
251	0x3e231947	0.15927611
252	0xbd92ad64	-0.07161978
253	0xbe7a1ef1	-0.24425866
254	0xbe111f4e	-0.14172098
255	0x3e865588	0.2623713

feature_extractor.net.0.bias f4 [64]
0	0x3eddbb1d	0.4330682
1	0x3dc9feab	0.09863027
2	0xbd77e632	-0.060522266
3	0x3ec389e3	0.38191137
4	0x3e2cb312	0.16865185
5	0xbec5e8f8	-0.38654304
6	0x3dab1579	0.08353705
7	0xbd3e6276	-0.04648062
8	0xbe8a15a4	-0.26969635
9	0xbe582737	-0.2110871
10	0xbdfe1b4b	-0.124075495
11	0x3ebf4481	0.37356952
12	0xbe829357	-0.25503036
13	0xbe9ffa3b	-0.31245598
14	0x3e5360d1	0.20642401
15	0x3ea38287	0.31935522
16	0xbd9501ce	-0.07275735
17	0xbeb91ff3	-0.36157188
18	0xbe9361b5	-0.28785482
19	0x3ee0ebaf	0.43929812
20	0x3e056282	0.13025859
21	0x3ee42753	0.44561252
22	0x3ee37cb8	0.4443109
23	0xbeacd332	-0.3375488
24	0x3c9dde47	0.01927103
25	0x3c978862	0.01849765
26	0xbe127fbf	-0.14306544
27	0x3e1bf114	0.15228683
28	0xbe94022d	-0.2890791
29	0x3ed0df94	0.40795577
30	0x3e848c66	0.25888366
31	0x3eec59a4	0.4616214
32	0xbdfa2b5f	-0.12215304
33	0x3ea87f4a	0.32909614
34	0x3c2d2141	0.01056701
35	0xbe4fc7d8	-0.20291078
36	0xbe7b996e	-0.24570248
37	0xbed7e3fc	-0.42166126
38	0xbe9720b0	-0.29517126
39	0xbe6c2b39	-0.23063363
40	0xbd3974e1	-0.04527748
41	0xbe44b390	-0.19209123
42	0xbe96739a	-0.29385072
43	0xbec456e5	-0.38347545
44	0xbe8e5c16	-0.2780463
45	0xbbc7bbaf	-0.0060953717
46	0xbd268df8	-0.040662736
47	0x3ebf1914	0.3732382
48	0xbe901745	-0.28142753
49	0xbeafc620	-0.34330845
50	0xbdf5fcdd	-0.120111205
51	0x3c9ef891	0.019405635
52	0xbe4ad7b0	-0.19808841
53	0xbd91256e	-0.07087217
54	0xbe4dcf2b	-0.2009856
55	0x3ecc0f10	0.39855242
56	0x3e2f2b23	0.17106299
57	0xbe81cc20	-0.25351048
58	0x3e9b5809	0.30340603
59	0xbd32e887	-0.043678787
60	0x3e210433	0.15724258
61	0x3e6d87c3	0.2319632
62	0x3e6cc6aa	0.2312266
63	0xbe9a8761	-0.3018141

feature_extractor.net.2.weight f4 [32, 64]
0	0x3e1cc7ee	0.15310642
1	0xbd1c221c	-0.038118467
2	0x3e2e78b2	0.17038229
3	0x3e09b3be	0.13447472
4	0x3d7a5758	0.061118454
5	0xbd148cde	-0.036267154
6	0x3d33e23e	0.043916933
7	0x3dc74dec	0.09731659
8	0xbdc44936	-0.095842764
9	0xbbf2ab0d	-0.0074056447
10	0xbd9e706f	-0.07736289
11	0x3de06e29	0.109585114
12	0xbe643764	-0.22286755
13	0xbd4e3522	-0.05034364
14	0x3c9ba373	0.018998837
15	0x3d1e5002	0.03865052
16	0x3d7e12e8	0.06202975
17	0xbc1003a4	-0.0087899305
18	0xbd646876	-0.055763684
19	0x3e454226	0.19263515
20	0xbd8fe60d	-0.070263006
21	0x3d4b79c3	0.049676668
22	0x3d99abbc	0.07503459
23	0xbc961604	-0.018321045
24	0xbe283e34	-0.16429979
25	0x3ca83f3e	0.020537969
26	0x3db02b2b	0.08601984
27	0x3de763c8	0.11298329
28	0xbdd59a3b	-0.10429808
29	0x3d8e1dc2	0.069392696
30	0xbc3ee6d7	-0.011651716
31	0x3de0d525	0.10978154
32	0x3b2612d3	0.002534081
33	0x3e1655d9	0.14681186
34	0x3d36f419	0.044666383
35	0xbdc1edc4	-0.09469178
36	0x3c3c1009	0.011478432
37	0xbe2d8f2d	-0.16949148
38	0x3c9ee651	0.019396933
39	0x3df5c660	0.12000728
40	0xbc0bc90e	-0.008531822
41	0xbd1f25af	-0.038854297
42	0x3d27b9c6	0.04094865
43	0xbd71b985	-0.059014816
44	0x3e034e19	0.1282276
45	0xba0988f9	-0.0005246546
46	0x3ddaaa0b	0.10676964
47	0xbc32bf9a	-0.010909939
48	0x3de8e34b	0.11371478
49	0xbe046471	-0.1292894
50	0xbdbca2dd	-0.09210751
51	0x3d16e801	0.03684235
52	0xbd117140	-0.035508394
53	0x3d29df6f	0.04147285
54	0x3ca33219	0.01992135
55	0x3d931bf4	0.07183066
56	0xba2a0201	-0.0006485284
57	0xbd35acf2	-0.044354387
58	0x3df05874	0.11735621
59	0xbd234726	-0.039862774
60	0xbd4c79e6	-0.04992094
61	0x3dfaa48a	0.122384146
62	0x3e256835	0.16153033
63	0xbdd650c2	-0.10464622
64	0xbdb6e895	-0.0893108
65	0xbd89916f	-0.067171924
66	0xbda31c84	-0.07964423
67	0x3da08ddd	0.07839558
68	0xbd92ebc5	-0.07173876
69	0x3d40aaa6	0.047037743
70	0x3b0f6e54	0.002188583
71	0xbdceccf8	-0.100976884
72	0x3ddc1635	0.10746423
73	0xbd8c2328	-0.06842643
74	0x3d87ca48	0.06630379
75	0x3c8ff84d	0.017574454
76	0x3ce4ca24	0.02792842
77	0xbc06e186	-0.00823248
78	0xbde5d1f1	-0.11221684
79	0xbbf72894	-0.007542679
80	0x3dc4da67	0.096119694
81	0x3b57d393	0.0032932505
82	0xbdbddd9e	-0.09270786
83	0xbdc9128a	-0.09817989
84	0xbd4e75d9	-0.050405357
85	0xbb8e1f6b	-0.0043372414
86	0xbdbd8d4b	-0.09255465
87	0x3d4a2c40	0.049358606
88	0xbd835708	-0.06413084
89	0xbd6cc6cf	-0.057806786
90	0xbda50cd3	-0.08059087
91	0x3db625a6	0.088938996
92	0x3d9456f9	0.07243151
93	0xbd9462b6	-0.0724539
94	0xbd1d7888	-0.038445026
95	0x3cc3783c	0.023861043
96	0x3d3789e7	0.04480925
97	0xbcb06df0	-0.021536797
98	0x3d213dd9	0.039365623
99	0x3d974b26	0.0738738
100	0xbde235d1	-0.11045421
101	0x3dce8193	0.10083308
102	0x3ce11c8b	0.02747943
103	0x3dd0fa48	0.10203987
104	0xbd1be6a4	-0.038061753
105	0x3dd30906	0.103044555
106	0xbd4b208d	-0.04959159
107	0xbdc1e7ba	-0.094680265
108	0xbdc695e3	-0.096965574
109	0xbe0ea8c7	-0.13931571
110	0xbde0502a	-0.1095279
111	0x3cfb91dc	0.0307092
112	0x3cf62ef2	0.030051682
113	0xbd225eaf	-0.03964108
114	0xbd1d13ab	-0.038348835
115	0x3c91becb	0.017791172
116	0xbe0bef97	-0.13665615
117	0x3da5fb43	0.08104565
118	0xbdc5aed1	-0.09652484
119	0xbcebce7c	-0.028784983
120	0x3cda13bd	0.02662074
121	0xbcbed8ad	-0.023296678
122	0x3d6a35e6	0.057180308
123	0xbc587a9f	-0.013212829
124	0xbd697eaf	-0.05700558
125	0xbd920215	-0.07129303
126	0x3d27915b	0.040910106
127	0xbd61775d	-0.055045474
128	0x3ceff7ca	0.02929296
129	0xbc49fb97	-0.01232805
130	0xbdebd9ef	-0.11516177
131	0xbdb19e98	-0.086728275
132	0x3bf06ef5	0.007337446
133	0xbdacd222	-0.08438517
134	0x3d8f8fb5	0.07009832
135	0xbddb387e	-0.107041344
136	0x3de86f64	0.11349371
137	0x3da24351	0.07922996
138	0xbcf239aa	-0.029568512
139	0x3adfda77	0.0017078657
140	0x3d060316	0.032717787
141	0xbda2c187	-0.07947069
142	0xbe0c3793	-0.13693075
143	0x3d8fe723	0.07026508
144	0xbde429e9	-0.11140806
145	0x3c3b6aef	0.011439069
146	0xbda95aa6	-0.08269243
147	0x3c11d63e	0.008901177
148	0xbde359ec	-0.111011356
149	0xbd735d6d	-0.05941527
150	0xbe0acaae	-0.13553879
151	0xbda68cb1	-0.081323035
152	0x3d0c12f9	0.03419778
153	0x3dbc9b9b	0.09209367
154	0x3d6050c2	0.054764517
155	0xbe0ccce2	-0.13750032
156	0xbddbca52	-0.10731949
157	0xbcd385c1	-0.025820615
158	0xbcf86c53	-0.03032509
159	0x3db0156a	0.085978344
160	0x3ab80368	0.0014039101
161	0xbcfb3233	-0.030663585
162	0xbde5c858	-0.11219853
163	0x3c35d48d	0.011098039
164	0x3da4dbd4	0.080497414
165	0xbdc32061	-0.0952766
166	0x3da85a69	0.08220369
167	0xbd7aea9a	-0.06125889
168	0x3dcc196e	0.09965788
169	0x3d02fd18	0.03197965
170	0xbc603010	-0.013683334
171	0xbda8e225	-0.08246259
172	0x3cb4a27b	0.022050133
173	0xbc9c979f	-0.019115267
174	0xbe0cecd1	-0.13762213
175	0x3ceaf3db	0.028680732
176	0xbd929c00	-0.07158661
177	0x3dc8b4a0	0.098000765
178	0xbd0e9311	-0.034808222
179	0x3dbcd023	0.092193864
180	0xbdb59acd	-0.088674165
181	0xbd1f7074	-0.038925603
182	0xbe079aee	-0.13242695
183	0xbd1dd0aa	-0.038529076
184	0x3d1361c4	0.03598191
185	0x3d81be0b	0.06335076
186	0xbd9b12ee	-0.0757197
187	0xbc2c0707	-0.010499722
188	0x3d92fcdf	0.071771376
189	0x3dc41153	0.09573617
190	0xbd51abae	-0.051189117
191	0x3bca39fc	0.006171463
192	0x3d98a32e	0.07452999
193	0x3c427eec	0.011871081
194	0x3dade725	0.08491353
195	0xbd11c5e4	-0.035589114
196	0xbdc8cbe8	-0.09804517
197	0x3cd1372e	0.025539007
198	0xbdf3155a	-0.11869307
199	0x3b831133	0.003999853
200	0xbcc6189c	-0.024181657
201	0x3df9a998	0.121905506
202	0xbc07d3d8	-0.008290254
203	0xbd08c429	-0.033390198
204	0x3cfbedc4	0.030753024
205	0xbd783d06	-0.06060507
206	0xbd17a285	-0.037020225
207	0x3b6ebe19	0.0036429225
208	0x3c741510	0.0148976
209	0xbd899216	-0.06717317
210	0x3c36e461	0.011162848
211	0xba89621a	-0.0010481507
212	0x3d593cbc	0.053036436
213	0xbc813fa2	-0.015777413
214	0xbcb910bd	-0.02259099
215	0xbd0459bf	-0.03231215
216	0xbbfc0f0c	-0.0076922234
217	0x3d98af07	0.07455259
218	0xbc3d357c	-0.011548396
219	0xbd1c8f93	-0.03822286
220	0xbcecb2c5	-0.028893838
221	0xbe146b02	-0.14493945
222	0xbc8a3e62	-0.01687545
223	0xbe0d38ff	-0.13791274
224	0x3d13426c	0.035952017
225	0x3d959c84	0.073052436
226	0x3d9b1183	0.075716995
227	0x3d805b85	0.06267456
228	0xbddad973	-0.106860064
229	0x3e366486	0.17811784
230	0x3cbf7cd1	0.023374947
231	0xbd9c5853	-0.07634034
232	0x3dc463f3	0.09589376
233	0xbdb1571c	-0.08659193
234	0x3cd6ea71	0.026234837
235	0x3e064fc9	0.13116373
236	0xbe0847fa	-0.13308707
237	0x3dd62341	0.10455943
238	0xbcadfb77	-0.021238072
239	0x3bd18b1c	0.006394757
240	0x3d03f021	0.032211427
241	0x3c4723ba	0.012154514
242	0x3e013e99	0.12621535
243	0xbddc808c	-0.10766706
244	0x3c3aa88f	0.011392727
245	0xbde9a694	-0.114087254
246	0x3cfc1b4f	0.03077474
247	0xbe0d5ab7	-0.13804136
248	0xbe28db22	-0.16489843
249	0xbe10cf7c	-0.14141649
250	0x3da59f7b	0.08087059
251	0xbe048828	-0.12942564
252	0x3cbdbb92	0.02316073
253	0xbd97fa79	-0.07420821
254	0xbe0f7814	-0.1401065
255	0xbcabc237	-0.020966632

feature_extractor.net.2.bias f4 [32]
0	0x3dd11dd6	0.10210769
1	0xbe054495	-0.13014443
2	0xbdf8c893	-0.121476315
3	0x3ced0f1b	0.028937867
4	0x3d3a841a	0.045536138
5	0xbdcff051	-0.101532586
6	0x3dd08957	0.101824455
7	0xbd2a9931	-0.04165
8	0x3ea81543	0.3282872
9	0x3da21358	0.07913846
10	0xbda20030	-0.07910192
11	0xbd9e8519	-0.0774023
12	0xbd3c49b8	-0.04596874
13	0x3d4bec66	0.049785994
14	0xbd67a17f	-0.0565505
15	0x3cb65001	0.022254946
16	0xbd3e59ac	-0.046472237
17	0xbd861afb	-0.06548115
18	0xbd3ff9e2	-0.046869166
19	0x3e09bdfa	0.13451377
20	0x3e9b48ef	0.3032908
21	0xbe086d69	-0.13322987
22	0xbc72befd	-0.014816043
23	0xbc8222b4	-0.015885688
24	0x3d626bd2	0.055278607
25	0x3ccd68b6	0.025074344
26	0xbdf36607	-0.118846945
27	0x3e1a8702	0.15090564
28	0x3e8b3327	0.27187464
29	0x3e6b0ee1	0.22954895
30	0xbdff9aa1	-0.12480665
31	0x3e7538bc	0.23947424

classifier.fc.weight f4 [2, 32]
0	0x3f510a74	0.81656575
1	0x3e4fdf24	0.20299965
2	0xbe02770b	-0.12740724
3	0xbeaa2a4f	-0.33235404
4	0xbbfc58be	-0.0077010086
5	0xbf048857	-0.5177054
6	0x3c103509	0.008801707
7	0x3a912193	0.0011072628
8	0x3efccbb4	0.49374163
9	0xbe5285ad	-0.20558806
10	0x3c0573a3	0.008145246
11	0xbd81b0ab	-0.06332525
12	0x3d4e4c53	0.050365757
13	0xbe3f3460	-0.18672323
14	0xbd1213b7	-0.035663333
15	0x3c28bc2d	0.010298771
16	0x3d9df6c3	0.07713082
17	0xbeaae9e6	-0.33381575
18	0xbdfda332	-0.12384643
19	0x3e009117	0.12555347
20	0x3f03a2cf	0.514203
21	0xbdf59072	-0.119904414
22	0xbd7166ae	-0.058935814
23	0xbd8e5e97	-0.06951635
24	0xbf171edf	-0.5903148
25	0x3e6d33e6	0.23164329
26	0x3e81be8a	0.25340682
27	0xbcf8d1ab	-0.030373415
28	0x3eb7f16c	0.35926378
29	0x3ed69937	0.4191377
30	0xbe14784e	-0.14499018
31	0x3ec184fa	0.37796766
32	0xbf48c941	-0.7843209
33	0x3d5f7826	0.05455794
34	0xbe13cc3d	-0.1443338
35	0x3e4f6e30	0.20256877
36	0x3e2bf879	0.16794004
37	0x3f351ddd	0.7074869
38	0xbe9dca40	-0.30818367
39	0x3d66ea57	0.056375828
40	0xbed1c783	-0.40972528
41	0xbb1d2c39	-0.0023982658
42	0x3db93663	0.090435766
43	0xbb1f2925	-0.0024285999
44	0xbe7c3d86	-0.24632844
45	0x3e0da8ac	0.13833874
46	0x3e383a68	0.1799103
47	0xbe8d6e6d	-0.2762331
48	0x3de6cb4e	0.11269246
49	0x3eefc98b	0.46833453
50	0xbcde4eaf	-0.027137129
51	0x3d19bafb	0.037531834
52	0xbee13435	-0.43985143
53	0x3e23e9b2	0.16007116
54	0x3e296dbd	0.16545768
55	0x3d1b6a90	0.037943423
56	0x3f24afdd	0.64330846
57	0xbe98e241	-0.29860118
58	0xbc3cfd59	-0.011535012
59	0xbe66bfc4	-0.2253409
60	0xbe67e743	-0.22646813
61	0xbe73cc48	-0.23808396
62	0x3c20a975	0.009806027
63	0xbe98f650	-0.29875422

classifier.fc.bias f4 [2]
0	0x3bd6dc21	0.006557003
1	0xbd897a8c	-0.06712827

adversary.net.0.weight f4 [128, 32]
0	0xbdfecd41	-0.12441493
1	0x3e30c356	0.17262015
2	0xbe27155a	-0.16316739
3	0xbdd4e281	-0.10394765
4	0x3e086d7b	0.13323013
5	0x3d1c2074	0.038116887
6	0xba8dde96	-0.0010823782
7	0xbdb3d674	-0.08781138
8	0x3de4ef84	0.111784965
9	0x3dac35ab	0.08408674
10	0x3dd14d3d	0.1021981
11	0xbd10fac2	-0.03539539
12	0x3d6ebde0	0.058286548
13	0xbe0e76fe	-0.1391258
14	0xbe0765e5	-0.13222463
15	0x3e199003	0.14996342
16	0xbdd1daf0	-0.10246837
17	0x3d6f0557	0.0583547
18	0x3e43513c	0.19073957
19	0x3e2d9484	0.16951185
20	0x3d6ebb1a	0.058283903
21	0xbdb39ff2	-0.087707415
22	0xbde9928e	-0.11404906
23	0x3e13e160	0.14441442
24	0xbd9d5a08	-0.07683188
25	0xbd377f29	-0.044799004
26	0x3da1bdb9	0.07897515
27	0x3a33410c	0.0006838001
28	0x3da6169d	0.08109782
29	0xbd8a3aaa	-0.067494705
30	0x3db5a578	0.08869451
31	0x3e21973f	0.15780352
32	0x3df8915f	0.12137102
33	0x3e268a89	0.16263784
34	0x3cb6e216	0.022324603
35	0xbbf70b9f	-0.007539227
36	0x3d91cb5e	0.07118867
37	0xbdb08ede	-0.08621
38	0x3d9b096b	0.07570156
39	0xbc3a7133	-0.011379528
40	0x3cefa53c	0.029253595
41	0x3bb9ef6b	0.005674293
42	0xbe1ce230	-0.15320659
43	0x3d9093ab	0.070594154
44	0xbdcdf7ba	-0.10057016
45	0xbe130ef6	-0.14361176
46	0xbe343a62	-0.17600396
47	0xbe1c681e	-0.15274093
48	0xbdb4f3b1	-0.08835543
49	0xbe406232	-0.18787459
50	0xbd9d5976	-0.07683079
51	0xbdee38e3	-0.11631944
52	0x3e02c411	0.12770106
53	0x3ca54400	0.020174026
54	0x3e0e3869	0.13888706
55	0xbe07cdb1	-0.13262059
56	0x3d24918c	0.040177867
57	0xbdb55252	-0.08853592
58	0x3d21b045	0.039474744
59	0xbe191e36	-0.14952931
60	0x3d0192ea	0.03163425
61	0x3dc72cf2	0.097253695
62	0xbcabcf5b	-0.020972898
63	0x3d498438	0.04919836
64	0xbcc1710d	-0.023613477
65	0xbde56474	-0.112008005
66	0x3e317f37	0.17333685
67	0x3cecfae4	0.028928228
68	0x3c289db0	0.010291502
69	0x3de5da62	0.11223294
70	0xbe3e7816	-0.18600497
71	0xbda966b9	-0.08271546
72	0xbe310e5c	-0.17290634
73	0x3e096264	0.1341644
74	0x3dd801cb	0.10547217
75	0x3df00cb3	0.11721172
76	0x3dc4a882	0.09602453
77	0x3ced2e1f	0.028952656
78	0xbe1ffaaf	-0.15622972
79	0x3dc6a9ae	0.097003326
80	0xbdb3d451	-0.087807305
81	0x3dc8d363	0.09805944
82	0x3cd8d03f	0.026466487
83	0x3d0b82c0	0.03406024
84	0xbd051e15	-0.03249939
85	0x3e1274da	0.14302388
86	0x3e1a3660	0.15059805
87	0x3dbbefa2	0.09176566
88	0x3da99966	0.082812116
89	0xbd24769d	-0.04015218
90	0x3d50c82e	0.050972156
91	0xbd6e99b6	-0.05825206
92	0x3dbab4fa	0.0911655
93	0xbe0927f2	-0.13394144
94	0x3dbe85df	0.09302878
95	0xbdcd181c	-0.10014364
96	0x3df60d2a	0.120142296
97	0xbd39e82e	-0.04538744
98	0xbd5950c5	-0.053055543
99	0xbe4c2a38	-0.1993798
100	0xbd3bacd7	-0.04581913
101	0x3d15204b	0.03640775
102	0x3de80bf3	0.11330404
103	0x3d3c6e5b	0.04600368
104	0xbd85de6a	-0.06536563
105	0x3dcb17c3	0.099166416
106	0xbdddf1d2	-0.10837139
107	0xbdf8e93d	-0.12153862
108	0x3d720854	0.059089974
109	0xbd366722	-0.04453195
110	0x3d9a2f13	0.0752851
111	0x3cbc98c7	0.023022069
112	0x3dd0393d	0.10167167
113	0xbd8312e5	-0.06400088
114	0x3d4069be	0.046975844
115	0xbe40ec07	-0.18840037
116	0xbd89246e	-0.066964015
117	0x3d9ab687	0.075543456
118	0xbd52c987	-0.051461723
119	0xbdb46e03	-0.088100456
120	0xbbe0d9d9	-0.006861907
121	0x3ca2b698	0.019862458
122	0xbe32c737	-0.17458807
123	0xbe1bfe48	-0.1523372
124	0x3e1a53f3	0.15071087
125	0xbd0d8bfe	-0.034557335
126	0x3d526693	0.051367354
127	0x3e0b89b0	0.13626742
128	0x3e0ab6ce	0.13546297
129	0xbd536bcc	-0.051616475
130	0x3e22320f	0.15839408
131	0xbe058fc9	-0.13043131
132	0x3e17e3f7	0.14833055
133	0xbdeb9038	-0.11502117
134	0xbdbdaa15	-0.09260956
135	0xbdd6da8c	-0.10490903
136	0xbd9e2712	-0.07722296
137	0x3e5445eb	0.20729797
138	0xbd4ae7e8	-0.04953757
139	0x3d9f5132	0.07779159
140	0x3df8ad05	0.12142376
141	0xbd8abe50	-0.067745805
142	0xbd7a6683	-0.06113292
143	0xbd78d19b	-0.06074677
144	0x3d05ec89	0.03269628
145	0x3d0c91ad	0.034318615
146	0xbd26f857	-0.04076418
147	0x3dba52db	0.09097835
148	0x3e4c5695	0.19954903
149	0xbd8e7e28	-0.06957656
150	0x3e1da252	0.15393952
151	0xbe18b587	-0.14912997
152	0x3d1fe505	0.03903677
153	0xbd8e606f	-0.06951987
154	0x3e07584f	0.13217281
155	0xbd8758d3	-0.06608739
156	0xbdc0e975	-0.094195284
157	0x3d1ba03f	0.03799462
158	0x3cff3fe4	0.031158395
159	0x3d4393c1	0.04774833
160	0x3dffcadf	0.124898665
161	0x3ce08355	0.027406374
162	0xbdf6d082	-0.120514885
163	0xbe4afffd	-0.19824214
164	0x3dee179c	0.11625597
165	0xbdc5b9ae	-0.09654556
166	0x3ba98a4e	0.005173958
167	0x3d3c333f	0.04594731
168	0x3d15469a	0.036444284
169	0xbd9ccfa7	-0.07656794
170	0x3cfe9182	0.031075243
171	0x3e2c9680	0.16854286
172	0xbdf13f04	-0.117795974
173	0xbbf89f16	-0.007587324
174	0x3c0e9805	0.0087032365
175	0x3e0f544a	0.13996997
176	0x3cd95b73	0.026532864
177	0xbd29b5df	-0.04143321
178	0x3dbdb15d	0.09262345
179	0x3d90ae37	0.07064479
180	0xbdae8352	-0.08521141
181	0x3e1613cc	0.1465599
182	0x3da53abf	0.080678456
183	0xbe7089b8	-0.23490036
184	0xbe01fcd6	-0.12694106
185	0xbdd478b2	-0.10374583
186	0x3e0a129c	0.13483661
187	0xbaebbd07	-0.0017985412
188	0x3dd404bd	0.10352466
189	0xbe12549a	-0.14290085
190	0xbbdeff00	-0.0068053007
191	0xbcc6cb4e	-0.024266865
192	0xbe4e8703	-0.2016869
193	0x3e10022d	0.1406333
194	0xbd1b0246	-0.037843965
195	0xbcc5d07f	-0.02414727
196	0xbbf275e3	-0.007399307
197	0x3db7641e	0.08954643
198	0xbd009f99	-0.031402204
199	0x3c1a2675	0.009408583
200	0x3e1fa37e	0.15589711
201	0x3dfbba87	0.12291437
202	0x3e3b1f1d	0.18273588
203	0x3cd8650a	0.026415367
204	0x3c84f04e	0.016227867
205	0xbe4e8c27	-0.20170651
206	0x3e16a15a	0.14709988
207	0xbd733f23	-0.059386384
208	0x3d0f621b	0.03500567
209	0xbdb7bca3	-0.089715265
210	0x3dc6a505	0.09699444
211	0x3d20115e	0.039079063
212	0x3d8f75ef	0.07004916
213	0xbd8afdb8	-0.06786674
214	0xbe3d98de	-0.18515345
215	0xbe4a2964	-0.19742352
216	0x3d2820cb	0.0410469
217	0xbd1c0b7b	-0.038096886
218	0xbe230412	-0.15919521
219	0x3e310925	0.17288645
220	0xbd366071	-0.044525567
221	0x3e3e5865	0.18588407
222	0x3e235842	0.15951636
223	0xbcadd673	-0.021220421
224	0xbd8ef7bb	-0.069808446
225	0xbdb51431	-0.08841742
226	0x3e066ce2	0.13127473
227	0x3d9c2ae5	0.07625369
228	0x3c91efd1	0.017814549
229	0x3e3636ad	0.17794295
230	0xbd94e1a8	-0.07269603
231	0x3e01ed9e	0.126883
232	0x3df137bb	0.11778208
233	0xbe1a9c7c	-0.15098757
234	0xbdde8888	-0.10865885
235	0xbe0e25b7	-0.13881575
236	0x3d186734	0.037207797
237	0x3cc6e097	0.024277015
238	0xbd3f19f1	-0.0466556
239	0xbe0a4618	-0.13503301
240	0xbdef766d	-0.1169251
241	0xbcd4bcdd	-0.025968963
242	0xbe2456b9	-0.16048707
243	0x3c68e818	0.014215492
244	0xbdef98f0	-0.116990924
245	0x3ddcf16b	0.10788234
246	0xbd762775	-0.060096223
247	0x3dd7523b	0.10513731
248	0xbd5b9622	-0.053609975
249	0x3d4cd1cc	0.050004765
250	0xbd972344	-0.07379773
251	0x3e20260b	0.15639512
252	0x3e1269dc	0.14298195
253	0xbdbae6c9	-0.0912605
254	0xbdc3ca87	-0.095601134
255	0x3d24a497	0.040196028

adversary.net.0.bias f4 [128]
0	0x3d9413c1	0.0723033
1	0xbdac8edc	-0.08425686
2	0x3e276ef4	0.16350919
3	0xbe18aa05	-0.14908607
4	0xbca58912	-0.020206962
5	0xbdb15a35	-0.08659784
6	0x3e09264b	0.13393514
7	0xbe0eb5e8	-0.13936579
8	0x3e00ad00	0.12565994
9	0xbe23b151	-0.1598561
10	0xbaaf246f	-0.0013362298
11	0x3e06f703	0.13180165
12	0xbd29b127	-0.04142871
13	0xbdc1d1ea	-0.09463866
14	0x3d0ac4f6	0.033879243
15	0x3c81f505	0.015863905
16	0x3d8a89a2	0.067645326
17	0x3d3419c5	0.04396989
18	0x3e09868b	0.1343023
19	0x3db2e733	0.08735504
20	0xbd362c97	-0.044476118
21	0x3c3dbc23	0.0115805
22	0xbe103b8f	-0.1408522
23	0x3de9a7dc	0.1140897
24	0xbdbbbe4a	-0.09167154
25	0xbd147d4e	-0.036252312
26	0xbd9cda57	-0.076588325
27	0xbde44ac7	-0.11147075
28	0xbe27d7a3	-0.16390853
29	0x3cbc0370	0.022950858
30	0xbe166f6f	-0.14690946
31	0x3dbf8e32	0.093532935
32	0x3e04eeeb	0.12981765
33	0xbd32da84	-0.043665424
34	0x3ddda184	0.10821822
35	0x3e12be3a	0.14330378
36	0xbde5848c	-0.11206922
37	0x3e1da9f9	0.1539687
38	0x3d961f97	0.07330244
39	0x3d607e08	0.054807693
40	0xbd83a21d	-0.06427405
41	0x3dfc4d0f	0.12319385
42	0x3de40e7a	0.11135574
43	0xbd5d0280	-0.053957462
44	0x3dbfd52b	0.093668304
45	0xbe288ecc	-0.16460723
46	0xbdd98c4e	-0.10622464
47	0xbb9e887b	-0.004838047
48	0x3d9eb39c	0.077491015
49	0xbd08a3b3	-0.03335924
50	0xbdd220ca	-0.1026016
51	0x3c53e6e6	0.012933468
52	0xb9033a1a	-0.00012514778
53	0xbdd1bb3e	-0.10240792
54	0x3e1a6097	0.15075909
55	0xbe1dd279	-0.1541232
56	0x3a97b131	0.0011573193
57	0xbd34ad75	-0.044110734
58	0x3dad13f9	0.08451075
59	0xbd18ffd1	-0.03735334
60	0xbd9f660f	-0.07783138
61	0x3e2a1e7b	0.1661319
62	0x3e1b08a0	0.15140009
63	0x3dde724b	0.108616434
64	0x3e312b1a	0.17301598
65	0x3e0db47d	0.13838382
66	0x3d5a903f	0.05336022
67	0xbd35bdeb	-0.044370573
68	0x3dc700bf	0.09716939
69	0xbd869a19	-0.065723605
70	0xbe1724e0	-0.1476016
71	0x3d08c9ef	0.033395704
72	0xbd3d3300	-0.046191216
73	0x3dcb66f4	0.09931746
74	0xbe1be667	-0.1522461
75	0x3c435ce7	0.011924005
76	0xbd048ea8	-0.03236261
77	0xbdffe6ae	-0.124951705
78	0x3e29db48	0.16587555
79	0xbdfaa15b	-0.12237807
80	0x3dd4c146	0.103884265
81	0xbe1c7a2a	-0.15280977
82	0x3e318826	0.17337093
83	0xbe253035	-0.16131671
84	0x3d88df78	0.06683248
85	0xbd2155ab	-0.03938834
86	0xbe223b7b	-0.15843002
87	0x3dbe61a6	0.09295969
88	0xbd9a0749	-0.07520921
89	0xbdd88c2c	-0.10573611
90	0x3cb04416	0.02151684
91	0xbbd3ebb2	-0.006467306
92	0xbd43d9cd	-0.047815133
93	0x3c098138	0.008392625
94	0xbe115d32	-0.14195707
95	0xbd91256a	-0.07087214
96	0x3cfc6cff	0.030813692
97	0xbde50a1c	-0.11183569
98	0xbdf22640	-0.11823702
99	0xbd1fd8a5	-0.039024968
100	0xbcc8c1f8	-0.024506554
101	0x3db28d53	0.08718362
102	0xbdfeef28	-0.12447959
103	0x3db153c1	0.08658553
104	0xbda1d6e8	-0.07902318
105	0x3e1d4a3f	0.15360354
106	0x3df16fd5	0.117889084
107	0xbbf46727	-0.007458586
108	0x3dea19f7	0.11430734
109	0xbe016adb	-0.12638418
110	0x3e08a473	0.13343982
111	0xbdc29565	-0.09501151
112	0x3db37aad	0.08763633
113	0x3e09591e	0.13412902
114	0x3d9d4733	0.07679596
115	0x3dec4f10	0.115385175
116	0x3ddefb0a	0.10887726
117	0x3dd4cbd9	0.10390443
118	0xbd875a59	-0.06609029
119	0xbe2ac7b5	-0.16677745
120	0xbdf6e0f3	-0.120546244
121	0x3e26f746	0.16305265
122	0xbd42590b	-0.0474482
123	0xba1ee5bd	-0.00060614554
124	0xbceeb934	-0.029141046
125	0x3e09ceed	0.13457842
126	0x3e132499	0.1436943
127	0xbdda35a6	-0.10654764

adversary.net.1.weight f4 [128]
0	0x3f778afb	0.9669644
1	0x3f7a5d81	0.97798926
2	0x3f767794	0.9627621
3	0x3f7786ae	0.9668988
4	0x3f7f27b0	0.99669933
5	0x3f774d0d	0.96601945
6	0x3f76e7f1	0.96447664
7	0x3f7afdc0	0.9804344
8	0x3f76048b	0.9610068
9	0x3f778eca	0.96702254
10	0x3f790ce4	0.97285295
11	0x3f7625db	0.9615151
12	0x3f81c2f6	1.0137622
13	0x3f706e27	0.9391808
14	0x3f7ea888	0.9947591
15	0x3f7b9497	0.98273605
16	0x3f6ef9ef	0.9335012
17	0x3f7418eb	0.9535052
18	0x3f7fdeaa	0.99949133
19	0x3f76c5a5	0.9639533
20	0x3f77a0f2	0.9672996
21	0x3f757c6d	0.95892984
22	0x3f73b6bb	0.952007
23	0x3f7d7798	0.9901061
24	0x3f763864	0.96179795
25	0x3f786c38	0.9704013
26	0x3f7c590e	0.98573387
27	0x3f76ecbf	0.96454996
28	0x3f7639f1	0.9618216
29	0x3f7e5fcf	0.9936494
30	0x3f7a9773	0.97887343
31	0x3f6dc961	0.92885405
32	0x3f703fca	0.93847334
33	0x3f7bd95b	0.98378533
34	0x3f760c05	0.9611209
35	0x3f6e911e	0.9319018
36	0x3f69d3d7	0.91338867
37	0x3f79e883	0.9762041
38	0x3f7f7a64	0.9979613
39	0x3f7182b7	0.9434008
40	0x3f7344a2	0.950266
41	0x3f71bb54	0.94426465
42	0x3f7933c9	0.9734464
43	0x3f7ac4b7	0.97956413
44	0x3f7acf31	0.979724
45	0x3f740124	0.9531424
46	0x3f73cac0	0.95231247
47	0x3f78e9e7	0.97231907
48	0x3f7ccfff	0.98754877
49	0x3f7e27df	0.9927959
50	0x3f731ba1	0.94964033
51	0x3f7c8a19	0.9864822
52	0x3f7e9fe6	0.99462736
53	0x3f71ce63	0.94455546
54	0x3f7cbed5	0.98728687
55	0x3f7ddd12	0.9916545
56	0x3f71636a	0.9429232
57	0x3f6e63b1	0.93120867
58	0x3f7486ba	0.95518076
59	0x3f71a67f	0.9439468
60	0x3f7a6348	0.9780774
61	0x3f7552b9	0.9582935
62	0x3f75dbe9	0.9603868
63	0x3f828433	1.0196594
64	0x3f767cc4	0.9628413
65	0x3f747733	0.95494384
66	0x3f75f946	0.96083486
67	0x3f815b64	1.0106015
68	0x3f7cb8da	0.9871956
69	0x3f77395c	0.965719
70	0x3f78a686	0.97129095
71	0x3f6c4fda	0.92309344
72	0x3f7ace1d	0.97970754
73	0x3f7a7d9d	0.9784792
74	0x3f7d9d32	0.99067986
75	0x3f74dc5b	0.95648736
76	0x3f82a496	1.0206478
77	0x3f759334	0.9592774
78	0x3f77b024	0.96753144
79	0x3f6fd762	0.93688023
80	0x3f6a3c52	0.9149829
81	0x3f76c530	0.96394634
82	0x3f801cf9	1.0008842
83	0x3f799e53	0.9750721
84	0x3f73f6d3	0.952985
85	0x3f76d139	0.96413
86	0x3f80cb4b	1.006204
87	0x3f7a93c5	0.9788173
88	0x3f7f5908	0.99745226
89	0x3f7bb70f	0.983262
90	0x3f787d74	0.97066426
91	0x3f785758	0.97008276
92	0x3f71ca06	0.9444889
93	0x3f753b56	0.95793664
94	0x3f77c06a	0.96777976
95	0x3f75280b	0.95764226
96	0x3f7bb354	0.9832051
97	0x3f77c20e	0.9678048
98	0x3f792135	0.97316295
99	0x3f79d570	0.97591305
100	0x3f75d5e3	0.9602949
101	0x3f749dcd	0.95553285
102	0x3f64981c	0.892946
103	0x3f6cba1a	0.9247147
104	0x3f77c3d4	0.96783185
105	0x3f800b73	1.0003494
106	0x3f7b664f	0.98202986
107	0x3f75f2ff	0.9607391
108	0x3f7a4c4c	0.9777267
109	0x3f752ce7	0.9577164
110	0x3f7f35aa	0.9969126
111	0x3f74b449	0.95587593
112	0x3f77bc7a	0.9677197
113	0x3f719886	0.9437336
114	0x3f77bd8b	0.96773595
115	0x3f745e27	0.95456165
116	0x3f7a7bde	0.97845256
117	0x3f73c7ac	0.9522655
118	0x3f805461	1.002575
119	0x3f769b02	0.96330273
120	0x3f77aa21	0.9674397
121	0x3f6cd2f3	0.9250938
122	0x3f793d0d	0.9735878
123	0x3f71496c	0.9425266
124	0x3f7f62c4	0.9976008
125	0x3f76e5aa	0.9644419
126	0x3f716982	0.9430162
127	0x3f78e699	0.97226864

adversary.net.1.bias f4 [128]
0	0xbe261ea0	-0.1622262
1	0x3de68d8e	0.11257468
2	0xbd1686ec	-0.036749765
3	0x3d47cf0f	0.04878145
4	0x3d980e76	0.07424633
5	0x3daa2529	0.08307869
6	0xbde83a68	-0.11339265
7	0x3d22be65	0.039732356
8	0xbe1d2ff9	-0.15350331
9	0x3d43beb6	0.047789298
10	0x3dd1ac57	0.10237949
11	0xbd5a8643	-0.0533507
12	0x3df497e0	0.1194303
13	0x3c65bec9	0.0140225375
14	0x3db24e75	0.08706371
15	0xbd9f3dc2	-0.07775451
16	0x3a9e1f5f	0.0012063793
17	0x3d92ac9d	0.071618296
18	0xbd58db05	-0.05294325
19	0x3d467432	0.048450656
20	0x3da780bd	0.08178852
21	0x3d4edf1e	0.05050575
22	0x3d488e67	0.04896393
23	0x3d7b45fe	0.061346047
24	0x3e03bad5	0.1286424
25	0x3da0f74e	0.078596696
26	0x3d8ffdae	0.070308074
27	0x3d654520	0.055974126
28	0x3dc7df53	0.097593926
29	0x3dd0f8d5	0.10203711
30	0x3d90670e	0.07050906
31	0xbb8dedee	-0.004331342
32	0xbe353978	-0.17697704
33	0x3e02c84a	0.12771717
34	0xbdc93ef8	-0.098264635
35	0xbd5fa816	-0.05460366
36	0xbe0c084f	-0.13675044
37	0x3e081b90	0.13291764
38	0x3e325252	0.17414215
39	0xbd550e94	-0.052015856
40	0xbba9cf60	-0.0051821917
41	0x3d20dd8d	0.039273787
42	0x3d791e6b	0.060820024
43	0xbcce83a2	-0.025209252
44	0x3d8a3f3a	0.06750341
45	0x3d452e60	0.04813993
46	0xbcab62a3	-0.020921057
47	0xbe11287f	-0.14175604
48	0x3da5e3ec	0.08100113
49	0xbe048b42	-0.12943748
50	0x3dc47e01	0.09594346
51	0x3da6bc95	0.08141438
52	0x3d8b44fc	0.06800267
53	0x3daf2092	0.08551134
54	0xbd5d9a69	-0.054102335
55	0xbd427226	-0.04747214
56	0xbe0310b7	-0.12799345
57	0xbde35418	-0.11100024
58	0x3dd50b21	0.10402513
59	0xbe1652e6	-0.1468006
60	0x3df01d2e	0.117243156
61	0xbdd76854	-0.10517946
62	0x3c340214	0.010986824
63	0x3db20e24	0.08694103
64	0x3d8b76a0	0.06809735
65	0x3c45eb85	0.012080078
66	0x3d9dd087	0.07705789
67	0x3d9a7c8b	0.07543286
68	0xbdd0be71	-0.10192574
69	0x3ddaf997	0.10692137
70	0x3e075509	0.13216032
71	0x3ac5911e	0.0015073156
72	0x3d9571ed	0.0729712
73	0xbdd2c6e5	-0.10291842
74	0x3e134291	0.14380862
75	0x3d6ea9e7	0.0582675
76	0x3e10619e	0.14099738
77	0x3d8ca851	0.06868041
78	0x3d5fc2b6	0.05462905
79	0x3cc3ea9c	0.023915581
80	0xbe1eb14e	-0.15497324
81	0x3d21e941	0.03952909
82	0x3d9f9987	0.07792955
83	0x3de7eaef	0.11324107
84	0x3cf9930c	0.030465625
85	0x3dd70742	0.10499431
86	0x3e059cd0	0.130481
87	0x3d7ec83c	0.062202677
88	0x3d2e3322	0.042529233
89	0x3d7ff873	0.0624928
90	0x3d9b57cc	0.07585105
91	0x3e020f2d	0.12701102
92	0xbd958c94	-0.07302204
93	0xbd999004	-0.07498172
94	0x3e01e8f6	0.12686524
95	0xbbcee1f0	-0.006313555
96	0x3cce8617	0.025210423
97	0xbd334137	-0.043763366
98	0xbdf4273a	-0.119215444
99	0x3cc608ce	0.02417412
100	0x3db05c0c	0.086113065
101	0x3d7976be	0.060904257
102	0xbcea5abe	-0.028607722
103	0xbe138937	-0.14407812
104	0x3b1ed5f2	0.0024236408
105	0x3d4e29f0	0.050332963
106	0xbde36ea7	-0.1110509
107	0xbdb2d2a5	-0.087315835
108	0x3d6c26bc	0.057654127
109	0x3d2a6521	0.04160035
110	0x3d687551	0.056752507
111	0xbda260ab	-0.07928594
112	0x3d95acc5	0.07308344
113	0x3d804850	0.062637925
114	0xbceebf8a	-0.029144067
115	0xbb1573a3	-0.002280452
116	0xbdaf172f	-0.08549344
117	0x3d82b387	0.063818984
118	0xbe23fa71	-0.16013505
119	0x3da1ad68	0.07894403
120	0xbdd56648	-0.10419899
121	0xbe5c7615	-0.2152942
122	0x3dc4174e	0.095747575
123	0xbd6a4a5b	-0.057199817
124	0x3dde9265	0.10867766
125	0x3d3bc953	0.045846295
126	0xbda0de7a	-0.07854934
127	0x3d459081	0.048233513

adversary.net.1.running_mean f4 [128]
0	0x3efa327a	0.48866636
1	0x3dba79c3	0.091052555
2	0xbe4de57c	-0.20107073
3	0xbb80daad	-0.003932318
4	0x3df00a65	0.117207326
5	0xbdadda4e	-0.08488904
6	0x3eb792fc	0.35854328
7	0xbe0fc81b	-0.14041178
8	0x3eedf3a3	0.46474943
9	0xbe1f867e	-0.15578648
10	0x3eb8ef7a	0.36120206
11	0xbdf0c215	-0.11755768
12	0xbbe39d72	-0.006946259
13	0xbf1644ba	-0.5869862
14	0xbece1e20	-0.4025736
15	0xbe8c5201	-0.27406314
16	0xbea94dfa	-0.33067304
17	0xbe53398e	-0.20627424
18	0xbe1ac5be	-0.15114495
19	0xbe729728	-0.23690474
20	0xbda189b6	-0.078875944
21	0x3db2bdf1	0.08727635
22	0xbe902e76	-0.28160447
23	0xbed4dc39	-0.41574267
24	0x3eb990e3	0.36243352
25	0x3c4f31e7	0.012646175
26	0xbe028578	-0.12746227
27	0xbe88a0e1	-0.2668524
28	0xbe0a7968	-0.13522875
29	0x3e64ee84	0.22356611
30	0xbf52507a	-0.8215405
31	0x3ebbf239	0.3670824
32	0x3dc71ce0	0.09722304
33	0xbf07f67e	-0.5311049
34	0xbe347beb	-0.17625396
35	0x3ed1365b	0.40861782
36	0xbde84cb6	-0.113427565
37	0x3e95a727	0.2922909
38	0xbe5240c0	-0.20532513
39	0xbeb3a9bc	-0.35090435
40	0xbd59d1cb	-0.05317859
41	0x3ebc5779	0.36785486
42	0xbd93bb12	-0.07213415
43	0x3e82633b	0.25466332
44	0x3daa2388	0.08307558
45	0xbf279f1e	-0.6547717
46	0x3ed8f620	0.42375278
47	0x3f03c3d5	0.5147069
48	0x3df0a395	0.11749951
49	0xbea45d59	-0.3210247
50	0xbf025d67	-0.5092377
51	0xbe418d2a	-0.18901506
52	0xbdf09e3f	-0.11748933
53	0x3dad7b76	0.08470814
54	0x3ead7911	0.3388143
55	0x3ed6a6f1	0.4192424
56	0x3edb94ee	0.42887062
57	0x3e1ab437	0.15107809
58	0x3e72201c	0.23645061
59	0x3e91f024	0.28503525
60	0x3e891724	0.26775467
61	0x3e27c44f	0.1638348
62	0xbea4b4a5	-0.3216907
63	0xbca074fa	-0.019587029
64	0xbeba43fa	-0.36379987
65	0x3e7c8533	0.24660186
66	0xbe07f662	-0.13277581
67	0xbe8957a7	-0.26824686
68	0x3ec45a44	0.38350117
69	0xbda1b3e0	-0.078956366
70	0x3e7225c9	0.23647226
71	0xbe762a5a	-0.24039593
72	0xbd4fc286	-0.05072262
73	0x3c501c1d	0.012702015
74	0xbe38c9bd	-0.18045707
75	0xbc9941b0	-0.01870808
76	0xbd9ec462	-0.07752301
77	0xbd9067a8	-0.07051021
78	0xbe0c28a5	-0.1368738
79	0x3d19b0f5	0.037522275
80	0x3ee5d25f	0.44887063
81	0x3d96a961	0.07356525
82	0xbdae607e	-0.08514498
83	0x3e52e548	0.20595276
84	0xbf1e6373	-0.618705
85	0xbea55d3f	-0.32297704
86	0x3e630500	0.22169876
87	0x3e0e7132	0.13910368
88	0xbe1ce520	-0.15321779
89	0x3def22b3	0.1167654
90	0xbea611e2	-0.32435519
91	0x3cd1258c	0.025530599
92	0xbe97b6d3	-0.2963167
93	0x3e2db24e	0.16962549
94	0x3e99957c	0.2999686
95	0xbf3c3357	-0.7351584
96	0xbd1d9040	-0.038467646
97	0x3dbc7707	0.0920239
98	0x3efd3928	0.4945767
99	0x3ebeb4ed	0.3724741
100	0xbf3a8c54	-0.72870374
101	0x3d35ab8b	0.04435305
102	0xbecbed43	-0.39829454
103	0xbe9148fc	-0.28375995
104	0xbe357fea	-0.17724577
105	0x3ddedd5e	0.10882066
106	0xbe91c444	-0.2847005
107	0xbe4411a3	-0.19147353
108	0x3e8c10b5	0.27356496
109	0xbe9b151e	-0.3028955
110	0x3e81c616	0.2534644
111	0xbc80efeb	-0.015739402
112	0xbd6ee752	-0.058326073
113	0x3ecd47d7	0.40093872
114	0xbe13b5ee	-0.1442487
115	0x3e19ed2a	0.15031877
116	0xbdd14523	-0.10218265
117	0x3e34703d	0.1762094
118	0xbe609652	-0.21932343
119	0xbea9f563	-0.33195028
120	0xbdaf00db	-0.08545085
121	0x3f0fa09c	0.56104445
122	0x3d221923	0.039574753
123	0xbf1c76eb	-0.61118954
124	0x3e066c9f	0.13127373
125	0xbda82638	-0.08210415
126	0xbca07810	-0.0195885
127	0x3ea45d8e	0.32102627

adversary.net.1.running_var f4 [128]
0	0x3d18a950	0.037270844
1	0x3d0f3225	0.03495993
2	0x3d86a198	0.0657379
3	0x3cb4c47e	0.022066351
4	0x3baa4b26	0.0051969467
5	0x3c4d2bec	0.012522679
6	0x3c0118fb	0.007879491
7	0x3b6d086b	0.0036168348
8	0x3c44a896	0.012003085
9	0x3b96111b	0.004579676
10	0x3c348e80	0.011020303
11	0x3c1fd4a1	0.0097552845
12	0x3b25132e	0.0025188434
13	0x3cb625cc	0.02223482
14	0x3c57baed	0.013167125
15	0x3d2ab0aa	0.041672386
16	0x3cc9ff53	0.02465788
17	0x3cbe4137	0.023224456
18	0x3cb2ac2e	0.021810617
19	0x3c32025d	0.010864821
20	0x3b99325a	0.004675192
21	0x3c9a4c48	0.018835202
22	0x3c1be862	0.009515854
23	0x3d9a741a	0.07541676
24	0x3d1152d1	0.03547937
25	0x3c89f0ce	0.016838457
26	0x3c36064d	0.011109901
27	0x3c5042e8	0.012711264
28	0x3c018cc6	0.007907098
29	0x3c752b88	0.014963992
30	0x3d4e67da	0.05039201
31	0x3c88c6f4	0.01669643
32	0x3ca739f6	0.02041338
33	0x3c9d34b5	0.019190172
34	0x3c51cb68	0.0128048435
35	0x3c27a660	0.010232538
36	0x3c9b71d6	0.01897518
37	0x3cf2367f	0.029567001
38	0x3d8856ac	0.06657156
39	0x3d8c1d3b	0.06841513
40	0x3c93eac7	0.018056286
41	0x3d1caa8b	0.03824858
42	0x3c02f874	0.007993806
43	0x3ca89d30	0.020582765
44	0x3b5ccd58	0.003369173
45	0x3d6c0570	0.057622373
46	0x3dcaa5f1	0.09894932
47	0x3d176432	0.036960788
48	0x3bd25074	0.006418282
49	0x3d3d18cb	0.046166223
50	0x3d0c0b27	0.034190323
51	0x3c0aca6d	0.008471114
52	0x3c0ba8ea	0.008524159
53	0x3c9c1afe	0.01905584
54	0x3cb8678b	0.02251031
55	0x3d4e754a	0.050404824
56	0x3ca73c44	0.02041448
57	0x3c0994bc	0.008397277
58	0x3c0d0459	0.008606994
59	0x3d39a2a2	0.045321114
60	0x3d6cfffa	0.057861306
61	0x3b77cdbf	0.0037811843
62	0x3cbc3e2f	0.02297887
63	0x3c8e6d92	0.017386232
64	0x3d81f38a	0.063452795
65	0x3bf9d9e9	0.007624854
66	0x3c100340	0.008789837
67	0x3b85c536	0.0040823473
68	0x3cb2e2d4	0.021836676
69	0x3d6530eb	0.055954855
70	0x3c8146ec	0.015780888
71	0x3ccb5008	0.024818435
72	0x3c07ca61	0.008287997
73	0x3c43a991	0.011942283
74	0x3c40ea8d	0.011774671
75	0x3ce64d2a	0.028112967
76	0x3bd87e87	0.00660688
77	0x3cbf445e	0.02334803
78	0x3c356e55	0.0110736685
79	0x3c055dab	0.008140008
80	0x3c6ae9b3	0.014337945
81	0x3c015598	0.007893942
82	0x3c3a8804	0.011384968
83	0x3d79be82	0.060972698
84	0x3d6d4068	0.05792275
85	0x3c26e469	0.010186293
86	0x3c7283e9	0.014801958
87	0x3bf81563	0.007570909
88	0x3c297a34	0.010344077
89	0x3b99fc47	0.0046992633
90	0x3c5aa970	0.013346061
91	0x3bf59747	0.0074948403
92	0x3c590cd3	0.013247686
93	0x3c66fa3c	0.014097746
94	0x3ca0dd78	0.019636855
95	0x3d3c3e13	0.045957636
96	0x3be0b9b5	0.0068580755
97	0x3cf49335	0.02985535
98	0x3d471319	0.048602197
99	0x3d64fca6	0.055905007
100	0x3d744021	0.05963147
101	0x3bd804dd	0.0065923766
102	0x3cc7f470	0.02440855
103	0x3ce87554	0.028376259
104	0x3c1659c2	0.009176673
105	0x3b8632ce	0.004095412
106	0x3d3dee0c	0.046369597
107	0x3c3c731c	0.011502054
108	0x3bad6a09	0.0052921814
109	0x3b964c9d	0.0045867697
110	0x3beec6fa	0.0072869034
111	0x3d136245	0.03598239
112	0x3bee4b7c	0.007272182
113	0x3c0db380	0.008648753
114	0x3c4fbf8f	0.0126799485
115	0x3c8cb1ff	0.017174719
116	0x3d0cb757	0.034354534
117	0x3c80da8f	0.015729217
118	0x3d3b4abe	0.045725577
119	0x3ccb1847	0.02479185
120	0x3c0de747	0.008661098
121	0x3cccced7	0.025000973
122	0x3bf576d8	0.007490974
123	0x3d282f60	0.041060805
124	0x3c3e3027	0.01160816
125	0x3c33a53e	0.01096469
126	0x3cc99774	0.024608351
127	0x3c480722	0.012208732

adversary.net.3.weight f4 [64, 128]
0	0x3d3aab50	0.045573533
1	0xbd511c48	-0.05105236
2	0xbd109792	-0.0353008
3	0xbdb0a44a	-0.08625086
4	0xbc0af439	-0.008481079
5	0x3c3a5b97	0.011374376
6	0xbd2d7731	-0.042349998
7	0x3d337667	0.04381409
8	0xbccbc439	-0.02487384
9	0xbd9c1e53	-0.076229714
10	0xbdcd10de	-0.10012983
11	0xbc507a93	-0.0127245365
12	0xbd547942	-0.051873453
13	0x3c1f33dd	0.009716955
14	0xbd852909	-0.065019675
15	0x3d74e2d2	0.059786625
16	0xbb9e5963	-0.004832433
17	0xbd74e5a0	-0.0597893
18	0x3d055e70	0.032560766
19	0x3c05c4ef	0.008164628
20	0x3a44ce1a	0.0007507518
21	0xbca23a66	-0.019803237
22	0x3ca001e4	0.019532152
23	0x3b1890bb	0.0023279625
24	0xbdbc4991	-0.09193719
25	0x3d3ec109	0.04657081
26	0xbcf6bd53	-0.030119574
27	0xbc4e8786	-0.0126055535
28	0xbd70ae1e	-0.0587598
29	0xbccc8c07	-0.024969114
30	0x3d2228b7	0.03958961
31	0xbd92ad74	-0.0716199
32	0xbd931be2	-0.071830526
33	0x3c954666	0.018222045
34	0xbd3b18df	-0.045678016
35	0xbd7f1cd0	-0.062283337
36	0xbce5e822	-0.028064791
37	0x3c9ba5e9	0.01900001
38	0xbd4e808d	-0.050415564
39	0xbd8b5c67	-0.06804734
40	0x3d04b62a	0.032400288
41	0xbd0ca079	-0.034332726
42	0x3d29b18a	0.04142908
43	0xbd26f2f0	-0.040759027
44	0x3c7eb988	0.015547164
45	0xbd92ab1e	-0.07161544
46	0xbd4f360f	-0.050588664
47	0xbd3035b8	-0.04301998
48	0x3d3eddfe	0.046598427
49	0xbcddd017	-0.027076764
50	0xbd6b1baf	-0.057399448
51	0xbd567ccb	-0.052365106
52	0x3ca84ac3	0.020543462
53	0x3d8b4e9b	0.06802102
54	0xbd4996a5	-0.04921593
55	0xbd049168	-0.032365233
56	0x3cd79425	0.026315758
57	0x3d3c1dea	0.045926966
58	0xbd1789aa	-0.03699652
59	0x3ce00e84	0.027350672
60	0x3d3a05f0	0.04541582
61	0xbd9e9d4d	-0.077448465
62	0xbd5a4e20	-0.053297162
63	0xbcab2f83	-0.020896679
64	0xbdca47c3	-0.09876969
65	0xbda8462a	-0.08216508
66	0xbc95a569	-0.01826735
67	0xbcfee1ae	-0.031113472
68	0x3d80c640	0.06287813
69	0x3b1c45f4	0.0023845406
70	0xbd4da127	-0.050202515
71	0xbdbbcbc7	-0.09169727
72	0x3d904e0c	0.07046136
73	0x3c267b5c	0.010161247
74	0xbd13157a	-0.035909154
75	0x3d95bbe1	0.07311226
76	0xbd0539b0	-0.03252572
77	0x3c3db46e	0.011578662
78	0xbd6fccfd	-0.0585451
79	0xbd9b41b1	-0.07580889
80	0xbd506438	-0.050876826
81	0xbc3ea9b0	-0.011637136
82	0xbd6210ef	-0.05519193
83	0xbca93716	-0.02065615
84	0x3d26e47e	0.04074525
85	0x3ccbfc38	0.02490054
86	0x3c6871d2	0.014187293
87	0x3d87c710	0.06629765
88	0xbca5b500	-0.02022791
89	0xbdab2ccb	-0.08358153
90	0x3d8cd3d5	0.06876341
91	0xbd96b9ef	-0.07359683
92	0xbc62b419	-0.013836884
93	0x3d4b2605	0.049596805
94	0xbda2acae	-0.07943092
95	0xbbabd648	-0.00524405
96	0x3d4ffd1f	0.050778504
97	0xbb76efaa	-0.0037679472
98	0x3d3821a4	0.044953957
99	0xbd5b28ab	-0.05350558
100	0xbda434ea	-0.08017905
101	0xbd003cf2	-0.031308122
102	0xbb4771dd	-0.0030432858
103	0xbdd29394	-0.102820545
104	0xbdc43967	-0.09581261
105	0xbd8a030f	-0.06738865
106	0x3be7bf0d	0.0070723356
107	0xbcc61076	-0.024177771
108	0xbc9e4146	-0.019318234
109	0xbca1790d	-0.019711042
110	0xbba8f53a	-0.0051561864
111	0x3d3cb9ef	0.046075758
112	0xbd371825	-0.04470076
113	0x3c141787	0.0090388125
114	0x3d6ef8b9	0.05834267
115	0x3d886b6a	0.066611126
116	0x3d6aeffd	0.057357777
117	0xbd88029d	-0.066411234
118	0xbc9faea8	-0.019492462
119	0x3d4f9676	0.0506806
120	0x3c8f20d5	0.01747171
121	0x3bfa1cef	0.0076328437
122	0xbdc02617	-0.09382265
123	0xbc469c40	-0.012122214
124	0xbdab1205	-0.08353046
125	0xbc796429	-0.015221634
126	0x3be198ea	0.006884684
127	0x3d8fc8da	0.07020731
128	0xbcccad11	-0.024984868
129	0xbd23ff63	-0.040038478
130	0xbde0111e	-0.10940765
131	0xbcfc905c	-0.030830555
132	0xbcdc1817	-0.026866956
133	0xbd990ea2	-0.07473494
134	0xb702feb6	-7.807908e-06
135	0xbcc05b56	-0.023481052
136	0xbd5d2cd7	-0.05399784
137	0x3c8105e1	0.015749874
138	0xbc6f160f	-0.0145926615
139	0xbd7814ee	-0.060566835
140	0x3d25026d	0.040285517
141	0xbccb72e9	-0.024835067
142	0x3df0f004	0.11764529
143	0x3c2cbd22	0.01054314
144	0x3d8ba0c9	0.06817777
145	0x3cb68dda	0.022284437
146	0xbd1fb858	-0.038994163
147	0x3bd700a6	0.0065613566
148	0xbd5baf3f	-0.053633925
149	0x3ce209e9	0.027592616
150	0x3d79ec97	0.061016645
151	0xbdedc29e	-0.11609386
152	0xbdabbac9	-0.08385236
153	0x3ceca833	0.028888797
154	0xbd11485f	-0.03546941
155	0xbbff4d3e	-0.0077911904
156	0xbd5fb528	-0.054616123
157	0xbdb78158	-0.08960217
158	0xbdd1216b	-0.10211452
159	0xbb1c93d6	-0.0023891828
160	0x3c8d959c	0.017283253
161	0xbc128c9a	-0.008944655
162	0xbcc30231	-0.023804756
163	0xbde082c4	-0.109624416
164	0x3c9f1f8d	0.019424224
165	0x3dd99738	0.10624546
166	0xbd421741	-0.047385458
167	0x3bfa506c	0.0076389816
168	0x3c3be3f6	0.011467924
169	0x3d024384	0.03180267
170	0xbbdf5794	-0.00681586
171	0x3d511406	0.051044486
172	0xbdb02e58	-0.08602589
173	0x3d2f2e8f	0.04276901
174	0x3d85b0f5	0.065278925
175	0xbc2b3480	-0.010449529
176	0x3dc01c88	0.09380442
177	0xbdf8a696	-0.12141149
178	0xbd218e4e	-0.039442353
179	0x3e0802b1	0.13282277
180	0x3d553810	0.05205542
181	0x3d5fc262	0.054628737
182	0x3d5390be	0.05165171
183	0xbcc06bb6	-0.02348886
184	0xbd0daf0a	-0.03459076
185	0x3cbc9664	0.02302093
186	0xbceaf665	-0.028681943
187	0xbda1313b	-0.07870718
188	0xbdc9c7e5	-0.0985258
189	0x3cf302ed	0.029664481
190	0xbd795d1a	-0.060879804
191	0xbdc67aab	-0.09691366
192	0x3c7d62a7	0.015465415
193	0xbda7cb43	-0.08193066
194	0x3cfa3c03	0.030546194
195	0x3dbfb555	0.09360758
196	0xbd4d8c05	-0.05018236
197	0x3da98d7a	0.08278938
198	0x3d297f0b	0.041380923
199	0x3bf844b3	0.007576549
200	0x3d62a2e7	0.055331137
201	0x3dbbe209	0.09173972
202	0x3dbee340	0.09320688
203	0x3951eb80	0.00020019524
204	0x3dcac4a1	0.09900785
205	0xbd078688	-0.033087283
206	0x3d433eb7	0.04766723
207	0x3d36daff	0.044642445
208	0x3c7e00fb	0.015503163
209	0xbe00169b	-0.12508623
210	0x3c5d10bd	0.01349276
211	0xbb5fab48	-0.0034129191
212	0xbd3482b2	-0.044069953
213	0xbc8c449f	-0.017122565
214	0xbd9facae	-0.07796608
215	0x3ca09fc7	0.019607438
216	0x3b1669c2	0.002295122
217	0xbdb3f094	-0.08786121
218	0xbcb86f60	-0.022514045
219	0x3d05311c	0.032517537
220	0xbcdb2aa8	-0.026753739
221	0xbbf28956	-0.0074016256
222	0x3db00332	0.085943595
223	0x3d97a806	0.07405095
224	0xbc97fd60	-0.018553436
225	0xbd3e7e32	-0.046507068
226	0xbdb1cacf	-0.08681261
227	0xbdb21166	-0.08694725
228	0x3b5b6644	0.0033477703
229	0xbd96ba21	-0.0735972
230	0xbdb7d5b0	-0.089763045
231	0xbb71d763	-0.0036902062
232	0xbd7c4816	-0.061592184
233	0x3b307af8	0.0026928764
234	0xbdc6a5ba	-0.096995786
235	0x3d577f4a	0.052611627
236	0x3db6251e	0.08893798
237	0xbcfea3f8	-0.031084046
238	0xbdf42d87	-0.11922746
239	0xbd86f578	-0.06589788
240	0xbd53f99d	-0.05175172
241	0x3dc81c98	0.09771079
242	0xbcd8d2ee	-0.026467767
243	0xbda0f5b7	-0.078593664
244	0xbd8c9a91	-0.06865419
245	0xbc17e485	-0.009270792
246	0xbd80c553	-0.062876366
247	0xbd41ccfa	-0.04731462
248	0x3bfee14f	0.0077783237
249	0xbdc8df2b	-0.09808191
250	0xbda5c6fa	-0.080945924
251	0x3cfad0c0	0.030617118
252	0xbcfa295c	-0.0305373
253	0x3d924f00	0.07143974
254	0x3c9920dd	0.018692428
255	0x3d2bc285	0.041933555

adversary.net.3.bias f4 [64]
0	0xbd59cd25	-0.053174157
1	0x3d46451f	0.048405763
2	0x3e403e1e	0.18773696
3	0xbd1b035d	-0.037845004
4	0xbd0928de	-0.03348624
5	0x3e83800f	0.25683638
6	0xbce454b9	-0.02787243
7	0x3d0993db	0.03358827
8	0x3d8c7457	0.068581276
9	0xbe24da19	-0.16098823
10	0x3e14043a	0.14454737
11	0xbd66b8bf	-0.05632853
12	0x3d1b12d0	0.037859738
13	0x3dac2eba	0.0840735
14	0xbe335931	-0.17514493
15	0xbd8151cb	-0.06314429
16	0x3e2f1901	0.17099382
17	0xbde826e4	-0.11335543
18	0xbd8c8605	-0.068615
19	0xbdc436b8	-0.09580749
20	0xbd4eb76f	-0.050467905
21	0x3ca29d8e	0.019850519
22	0x3d92cd5c	0.071680754
23	0x3ca47f03	0.020080095
24	0x3b47eef3	0.0030507415
25	0x3e2816a4	0.16414887
26	0xbde06ab9	-0.10957856
27	0x3e3cae23	0.18425803
28	0x3e796c32	0.2435768
29	0xbd50973b	-0.050925475
30	0xbca1bc8e	-0.01974323
31	0x3df23e1a	0.11828251
32	0x3e02387e	0.12716863
33	0x3e41e987	0.1893674
34	0x3e864049	0.2622092
35	0x3e341648	0.17586625
36	0x3c505f83	0.012718084
37	0x3d334dca	0.043775357
38	0xbd6639bb	-0.0562074
39	0x3e092ea9	0.13396706
40	0xbcc0f2aa	-0.023553211
41	0xbc738681	-0.014863611
42	0x3c90f750	0.017696053
43	0xbd9b763a	-0.07590909
44	0xbe06b539	-0.13155068
45	0x3e38667b	0.18007843
46	0x3e09d78b	0.1346113
47	0xbbab73f0	-0.0052323267
48	0x3dee8f60	0.1164844
49	0xbd26f32f	-0.04075926
50	0x3dab74a9	0.083718605
51	0xbc3d0cb2	-0.011538671
52	0x3db71900	0.08940315
53	0x3ce6267f	0.028094528
54	0xbd6e38e7	-0.058159735
55	0x3e11e0c3	0.14245896
56	0xbda4c164	-0.08044699
57	0xbdc22bb8	-0.09480995
58	0xbd6cc9e9	-0.057809744
59	0x3e230b42	0.15922263
60	0xbd2f8269	-0.04284898
61	0x3da294f0	0.07938564
62	0x3d056d93	0.0325752
63	0xbdc8a6ce	-0.097974405
